gesture_model_final-2.pt (torch, 218129 bytes, 8 tensors)

conv1.weight f4 [64, 99, 3]
0.07229037 -0.06478739 0.27699783 0.07953329 0.4053515 0.031221453 -0.01610179 -0.010624562
0.014441291 -0.04243703 -0.073097266 -0.040851083 0.037545037 -0.13818538 0.24965522 0.15386713
0.6336724 -0.022531323 -0.15840727 -0.5970666 -0.019758547 -0.040525172 -0.01131491 -0.073827796
0.07130467 -0.24439648 0.22823521 0.13483776 0.70902735 -0.016249107 -0.04608399 -0.47591993
-0.035502482 -0.06540792 -0.026868755 -0.07829003 0.09474033 -0.20202777 0.16762443 0.0814637
0.80290705 0.0024038253 -0.018785309 -0.34974903 -0.04010359 -0.05245752 0.034315366 0.001263079
0.01726324 -0.19542688 0.17213608 0.13291082 1.0131989 -0.030423086 -0.09232084 -0.23424031
-0.099992625 -0.038682275 0.036177233 -0.014270875 0.014838582 0.04218197 0.20011528 0.06599777
0.5089893 0.046161104 0.01637135 -0.4916025 -0.1250027 0.0042086076 -0.013511174 -0.030850543
-0.049052406 0.0067976005 0.1291421 0.06010794 0.057292916 0.12854615 0.02429722 -0.22639236
-0.07717609 0.022483492 -0.002144612 -0.068804905 -0.04513108 0.05144878 0.17447048 0.07448138
0.10764185 0.07587499 -0.016179092 -0.0887084 -0.083533056 -0.018349016 -0.060030114 -0.087010056
-0.0467567 0.011030853 0.15082556 0.08835931 0.16624285 0.13756534 -0.09209847 0.039929047
-0.072892204 0.025280783 -0.071820535 -0.08841613 0.0204617 0.065396085 0.04578911 0.09576648
0.20874454 0.10046325 -0.07015667 -0.13779801 -0.09093866 -0.021540442 0.01926919 -0.037461363
-0.052943137 -0.35299855 0.0650945 0.09039571 -0.020232689 0.1415418 -0.047380988 0.04455718
-0.16780844 -0.079071835 0.017384639 -0.104498155 0.0022572281 -0.44434586 0.090718254 0.02148849
0.16216666 0.057779036 -0.08612253 0.17430246 -0.06902161 -0.07566402 -0.077697 -0.021178719
-0.07201768 -0.4036185 0.10047052 0.052928556 0.25932637 0.07716373 -0.101767294 0.21824548
-0.06253341 -0.07278233 -0.07158288 -0.09354905 -0.030276977 0.045283407 0.061068755 0.10344421
0.074834615 0.055494048 -0.085490406 0.033394124 -0.07320291 -0.01226474 0.014448172 -0.0650063
0.017197993 -0.4298242 0.026500396 0.081814215 -0.16602756 0.09011284 -0.08711139 0.077563666
-0.14754716 -0.053911377 0.015395993 -0.046805497 0.00932534 -0.4118607 0.08265545 0.039213922
-0.051946864 0.12985535 -0.12097217 0.070208505 -0.14981388 -0.015939264 -0.074929774 -0.026359383
0.0011701253 -0.2709507 0.082066245 0.008560905 0.027780311 0.052531503 -0.14252499 0.033152193
-0.10568249 -0.07299799 -0.09216274 -0.012546858 -0.03886371 -0.1180756 0.07005036 0.06095145
-0.054400116 0.10262678 -0.021621378 0.21135777 -0.07760654 -0.026893083 -0.07756722 -0.012038914
-0.080370665 -0.36748925 -0.026538214 0.0034470884 -0.20585844 0.15478048 -0.06680511 0.25658315
-0.14491744 -0.045008063 -0.0358956 -0.1156398 -0.08227318 -0.35226133 0.026747046 0.10392939
-0.09725589 0.11876537 -0.059386585 0.19122933 -0.06405296 -0.04917128 -0.025148211 -0.10319921
-0.0074733077 -0.27937034 -0.0073984778 0.0067752935 -0.02441906 0.09274049 -0.12217111 0.19616458
-0.10266114 0.021094378 -0.015504409 -0.05093684 0.06082681 0.07198031 -0.06821762 -0.017645659
00000000: f90c 943d 40af 84bd a9d2 8d3e 59e2 a23d
00000010: 3b8a cf3e 22c4 ff3c e7e7 83bc a512 2ebc
00000020: 2a9b 6c3c 73d2 2dbd 05b4 95bd 7753 27bd
00000030: d3c8 193d 7880 0dbe 9ea5 7f3e 588f 1d3e
00000040: 5b38 223f 9c93 b8bc 8435 22be 5bd9 18bf
00000050: addc a1bc b9fd 25bd 2c62 39bc 0733 97bd
00000060: 2f08 923d 1243 7abe 7eb6 693e e912 0a3e
00000070: d182 353f d91c 85bc 91c2 3cbd c7ab f3be
00000080: 0d6b 11bd 96f4 85bd dd1b dcbc 8656 a0bd
00000090: 3807 c23d 5ee0 4ebe bda5 2b3e 71d6 a63d
000000a0: 518b 4d3f 7f89 1d3b a6e3 99bc 4e12 b3be
000000b0: a943 24bd b2dd 56bd 458e 0c3d e68d a53a
000000c0: a36b 8d3c fc1d 48be 7144 303e c619 083e
000000d0: 80b0 813f d639 f9bc b512 bdbd b1dc 6fbe
000000e0: efc8 ccbd 4e71 1ebd 942e 143d 63d0 69bc
000000f0: 861d 733c 00c7 2c3d 05eb 4c3e d729 873d
00000100: 1f4d 023f 6d13 3d3d 361d 863c 53b3 fbbe
00000110: b500 00be 5ce8 893b f95d 5dbc 47ba fcbc
00000120: 2deb 48bd 68be de3b d43d 043e be33 763d
00000130: faab 6a3d 9aa1 033e f70a c73c 66d3 67be
00000140: 7f0e 9ebd 4d2f b83c 9e8c 0cbb 96e9 8cbd
00000150: 5edb 38bd f5bb 523d 64a8 323e b289 983d
00000160: 5573 dc3d 5964 9b3d 048a 84bc c0ac b5bd
00000170: 6113 abbd ad50 96bc 23e2 75bd 5432 b2bd
00000180: f483 3fbd c0ba 343c 0472 1a3e baf5 b43d
00000190: 913b 2a3e eedd 0c3e 1f9e bcbd a48c 233d
000001a0: 8248 95bd a519 cf3c a516 93bd 8413 b5bd
000001b0: 4c9f a73c 62ee 853d 5d8d 3b3d 3721 c43d
000001c0: 21c1 553e adbf cd3d 4dae 8fbd ec1a 0dbe
000001d0: 0c3e babd 9575 b0bc 6cda 9d3c 1671 19bd
000001e0: e7da 58bd 3abc b4be 4450 853d 6321 b93d
000001f0: 06bf a5bc 55f0 103e 9112 42bd 9781 363d
00000200: fad5 2bbe 6af0 a1bd 3b6a 8e3c 2103 d6bd
00000210: 01ee 133b 4d81 e3be 7eca b93d a108 b03c
00000220: 040f 263e b6a9 6c3d 0261 b0bd 587c 323e
00000230: 345b 8dbd bdf5 9abd 9b1f 9fbd fe7e adbc
00000240: 017e 93bd 16a7 cebe 7dc3 cd3d 9dcb 583d
00000250: 6dc6 843e 0508 9e3d 5f6b d0bd be7b 5f3e
00000260: 8411 80bd e70e 95bd 0c9a 92bd a596 bfbd
00000270: 6c07 f8bc 187b 393d 3b23 7a3d 8fda d33d
00000280: e442 993d ba4d 633d 9815 afbd 47c8 083d
00000290: 68eb 95bd 0cf2 48bc 07b8 6c3c 0622 85bd
000002a0: cee2 8c3c eb11 dcbe 5c17 d93c 368e a73d
000002b0: 2103 2abe 158d b83d 7567 b2bd b3d9 9e3d
000002c0: 9a16 17be 2dd2 5cbd 7a3f 7c3c 1fb7 3fbd
000002d0: 50c9 183c 68df d2be 4347 a93d c79e 203d
000002e0: 3cc6 54bd cdf8 043e 42c0 f7bd 7ac9 8f3d
000002f0: cf68 19be 0f93 82bc c874 99bd a2ef d7bc
00000300: e45e 993a 0dba 8abe 5912 a83d 0a43 0c3c
00000310: 8993 e33c 462b 573d 12f2 11be 98ca 073d
00000320: 1070 d8bd f87f 95bd d2bf bcbd 5691 4dbc
00000330: 8e2f 1fbd 9fd1 f1bd 9076 8f3d 3aa8 793d
00000340: a8d2 5ebd fd2d d23d 511f b1bc 2c6e 583e
00000350: 2df0 9ebd e24e dcbc 90db 9ebd dd3e 45bc
00000360: 6099 a4bd 8d27 bcbe ab66 d9bc 8ce8 613b
00000370: 8ecc 52be c67e 1e3e 1ed1 88bd de5e 833e
00000380: 3d65 14be 605a 38bd 4407 13bd 8fd4 ecbd
00000390: d77e a8bd 995b b4be 9f1c db3c efd8 d43d
000003a0: 192e c7bd 423b f33d 593f 73bd 9fd1 433e
000003b0: 332e 83bd d367 49bd 9f03 cebc 1b5a d3bd
000003c0: a6e2 f4bb a109 8fbe ee6e f2bb 4803 de3b
000003d0: 7b0a c8bc baee bd3d d934 fabd 5edf 483e
000003e0: 0140 d2bd 1ece ac3c 3406 7ebc 26a3 50bd
000003f0: 8825 793d 6a6a 933d aeb5 8bbd a18d 90bc

conv1.bias f4 [64]
0.041884594 0.36199847 -0.03445587 -0.3410858 -0.0070230584 0.27074686 -0.35947824 0.31621662
-0.23502694 0.12230067 -0.09831182 -0.06835794 -0.24394669 -0.059129063 -0.17920555 -0.11716867
-0.016531996 0.4198441 -0.1686716 0.037174635 -0.027441362 -0.1713573 0.028053973 -0.47132686
0.024092326 0.21090432 -0.23877858 0.0466295 -0.13461635 -0.3602147 -0.37316748 -0.027532257
-0.28949878 0.26833865 -0.17731936 0.21007062 0.36223575 -0.2530801 -0.046883177 0.25233313
0.65487134 0.036226314 -0.12223939 0.07827344 -0.5066691 -0.0007214114 -0.09170388 -0.21002473
-0.048101533 -0.18130778 0.4919737 0.2376364 0.5388364 -0.112307504 -0.05425485 -0.17757235
-0.2140845 0.4425455 -0.15803403 -0.15237328 0.3205256 -0.015629297 -0.022289641 -0.0011588166
00000000: 2e8f 2b3d dd57 b93e 9921 0dbd cca2 aebe
00000010: af21 e6bb 559f 8a3e 880d b8be 25e7 a13e
00000020: e7aa 70be c678 fa3d b557 c9bd 3fff 8bbd
00000030: 29cd 79be 5131 72bd a981 37be 21f6 efbd
00000040: 1c6e 87bc cef5 d63e 3fb8 2cbe 6e44 183d
00000050: b5cc e0bc 4a78 2fbe 72d1 e53c c151 f1be
00000060: 455d c53c 4df7 573e 5f82 74be 93fe 3e3d
00000070: ded8 09be 106e b8be cf0f bfbe 548b e1bc
00000080: 2f39 94be af63 893e 3593 35be c11c 573e
00000090: f776 b93e b793 81be 9308 40bd cf31 813e
000000a0: a6a5 273f 0b62 143d a558 fabd d34d a03d
000000b0: 11b5 01bf 191d 3dba 3ecf bbbd b910 57be
000000c0: 1d06 45bd bfa8 39be fae3 fb3e f556 733e
000000d0: 2ff1 093f 7a01 e6bd 553a 5ebd 87d5 35be
000000e0: f838 5bbe 5395 e23e acd3 21be be07 1cbe
000000f0: ee1b a43e 0309 80bc c498 b6bc 6fe3 97ba

lstm.weight_ih_l0 f4 [256, 64]
0.18911602 -0.14441395 0.0848462 0.23217918 0.017014941 0.029753974 0.40513676 0.031234182
0.13475898 0.32794017 0.21233982 0.23669285 0.13309944 -0.071623385 0.011132384 -0.10052013
0.0905828 0.18005973 0.07215156 0.21516761 -0.1445152 0.15463558 0.10037646 0.00094677025
0.34540758 0.2938214 0.5327523 0.025908647 -0.08575986 0.111316316 0.15188797 -0.00090845145
0.052887112 0.16031441 0.08589534 0.21876593 -0.19140087 -0.26603726 0.28119847 0.050796278
0.23602352 -0.05478037 0.15152638 0.021003965 0.017174741 0.08199198 -0.2704964 -0.12510003
-0.1729953 0.21232982 0.1899807 0.059268486 0.07569055 0.100317225 0.03771172 -0.089450054
-0.20420109 -0.27139595 -0.039579175 0.008508758 0.16136171 0.08057304 0.33674052 -0.06722399
0.021273613 0.18935037 0.16087048 -0.36038783 0.086074136 -0.17496745 -0.42303526 0.16849534
-0.20743762 -0.23280185 0.0051291 -0.028712278 -0.16564253 -0.069817506 0.02969331 0.22284912
0.15194903 -0.16951568 0.22871475 -0.026821079 0.19048567 -0.09510512 0.43438235 0.12943883
0.28160152 0.183124 0.054683298 0.19381663 -0.10598142 -0.06437231 -0.07335605 -0.111648686
-0.11753425 -0.18133932 -0.1722402 0.0950158 -0.21318755 -0.17233351 -0.0883587 -0.15843457
0.061841197 -0.24514315 0.23818928 -0.13710877 -0.074357614 -0.06837002 0.0073206164 -0.12306394
0.07272449 0.15860884 -0.009133255 0.009105095 0.42707723 0.11887272 -0.16614039 0.15289132
0.21470934 -0.14721414 0.06404309 -0.2511214 -0.15912397 -0.160313 -0.101719074 -0.17395955
0.0806636 0.023213001 0.12417796 0.082986064 -0.0031095152 0.10204513 0.082842514 0.11139443
0.081644215 -0.015993597 -0.09675659 0.056142464 0.01216414 0.023284454 0.059533495 -0.031762306
0.07588111 -0.016478289 0.06867882 -0.09001813 0.0050364262 0.11988888 0.100910276 0.04829571
-0.0021616346 0.03735357 0.0985258 -0.03253306 -0.0094796335 0.04436014 0.06827124 0.09546994
0.11004508 0.12577316 -0.034615103 -0.016131323 0.09341898 0.1267204 0.17768928 0.19698867
-0.086652435 -0.09272653 0.047539108 -0.00075488846 0.16263393 0.13500883 0.17759974 -0.05014713
0.13674285 0.11640818 0.051361132 0.14152212 0.026338907 0.0088596875 0.039871827 0.0520587
0.0361052 0.04945169 -0.040030476 0.019428177 0.1280041 0.006874804 -0.04451761 0.093500815
0.04499452 -0.071603194 0.05641086 0.025804626 0.009793047 0.058688547 0.068639815 0.041183606
0.0049623554 0.013109177 0.14400059 -0.07706822 0.038830973 0.13977556 -0.042512733 0.11352298
-0.050307494 -0.021063924 0.06038937 0.10937678 0.11434361 0.1306046 0.113507986 -0.006464487
-0.015770627 0.019307276 0.13921833 0.15269728 -0.041815523 0.08673046 0.010342321 -0.03898836
0.049739417 0.0021822464 0.07037123 -0.053223155 0.16989182 0.10795903 0.1376026 0.2163528
-0.057411153 -0.07008471 0.037520207 0.08580995 0.1166957 -0.047713958 0.1977296 -0.051012907
0.07212059 -0.03806801 0.08478208 0.13947737 0.025248852 -0.08382112 -0.057913866 0.08440987
-0.025959123 0.06331127 -0.05894475 -0.061907332 0.022584634 0.17760651 0.06261143 0.024803787
00000000: a1a7 413e 40e1 13be d8c3 ad3d 61c0 6d3e
00000010: eb62 8b3c 9bbe f33c 166e cf3e d4de ff3c
00000020: 42fe 093e c6e7 a73e 9c6f 593e 9c5f 723e
00000030: 384b 083e 48af 92bd 9a64 363c 7fdd cdbd
00000040: 7a83 b93d 9461 383e 32c4 933d e654 5c3e
00000050: cbfb 13be ca58 1e3e 2c92 cd3d ad30 783a
00000060: 43d9 b03e c26f 963e 7462 083f 5f3e d43c
00000070: dea2 afbd cff9 e33d 8588 1b3e 2525 6eba
00000080: 28a0 583d 7629 243e e5e9 af3d 2d04 603e
00000090: 97fe 43be 0936 88be 3ff9 8f3e c20f 503d
000000a0: 26b0 713e 6261 60bd bb29 1b3e 8210 ac3c
000000b0: 0bb2 8c3c 69eb a73d 817e 8abe 391a 00be
000000c0: ae25 31be fd6c 593e 4d8a 423e 83c3 723d
000000d0: a603 9b3d 1e73 cd3d 9b77 1a3d 9731 b7bd
000000e0: 171a 51be 69f4 8abe c61d 22bd 5168 0b3c
000000f0: 013c 253e 7a03 a53d 4169 ac3e bbac 89bd
00000100: 0046 ae3c 10e5 413e 3bbb 243e c184 b8be
00000110: a347 b03d ab2a 33be 1498 d8be 0b8a 2c3e
00000120: 876a 54be 9c63 6ebe 0212 a83b 0336 ebbc
00000130: 329e 29be 7bfc 8ebd 623f f33c 8f32 643e
00000140: 8798 1b3e 8595 2dbe 3334 6a3e e1b7 dbbc
00000150: ad0e 433e 79c6 c2bd 5d67 de3e 9d8b 043e
00000160: 132e 903e dc84 3b3e 98fb 5f3d de77 463e
00000170: c90c d9bd a1d5 83bd b23b 96bd 11a8 e4bd
00000180: ccb5 f0bd 04b1 39be bc5f 30be a597 c23d
00000190: d64d 5abe 3278 30be 68f5 b4bd ac3c 22be
000001a0: 324d 7d3d ce06 7bbe e4e7 733e 3e66 0cbe
000001b0: ce48 98bd 9505 8cbd c8e1 ef3b f208 fcbd
000001c0: 94f0 943d 5b6a 223e a6a3 15bc 892d 153c
000001d0: dea9 da3e 8a73 f33d b520 2abe 8b8f 1c3e
000001e0: c4dc 5b3e 4ebf 16be 0629 833d fc92 80be
000001f0: 65f1 22be 1729 24be 1752 d0bd 7422 32be
00000200: f532 a53d 3129 be3c 0451 fe3d 99f4 a93d
00000210: 02c9 4bbb 0afd d03d 56a9 a93d c322 e43d
00000220: 1535 a73d 0105 83bc 5228 c6bd a4f5 653d
00000230: 1a4c 473c 0abf be3c 65d9 733d 3119 02bd
00000240: 8e67 9b3d 7afd 86bc 7ba7 8c3d 6d5b b8bd
00000250: 9b08 a53b 4d88 f53d 0caa ce3d b9d1 453d
00000260: 36aa 0dbb 0f00 193d e5c7 c93d 6341 05bd
00000270: 7750 1bbc fab2 353d cbd1 8b3d be85 c33d
00000280: 515f e13d aeca 003e 91c8 0dbd d625 84bc
00000290: 7352 bf3d fec2 013e 2ef4 353e 66b7 493e
000002a0: d576 b1bd 68e7 bdbd 5eb8 423d b5e3 45ba
000002b0: 8289 263e c13f 0a3e b5dc 353e 1467 4dbd
000002c0: 5106 0c3e 6967 ee3d 0d60 523d 2deb 103e
000002d0: b1c4 d73c 3928 113c a450 233d 813b 553d
000002e0: 0ce3 133d db8d 4a3d fff6 23bd d727 9f3c
000002f0: 8213 033e 0946 e13b 1958 36bd 5b7d bf3d
00000300: 2c4c 383d b2a4 92bd 130f 673d 3964 d33c
00000310: 0473 203c 6763 703d 0893 8c3d 24b0 283d
00000320: 419b a23b e0c7 563c e474 133e f1d5 9dbd
00000330: 3a0d 1f3d 5321 0f3e d521 2ebd bc7e e83d
00000340: 3b0f 4ebd 408e acbc d85a 773d ef00 e03d
00000350: fc2c ea3d 36bd 053e e076 e83d 0cd4 d3bb
00000360: 6731 81bc 4b2a 9e3c 408f 0e3e ad5c 1c3e
00000370: c146 2bbd bd9f b13d d772 293c 42b2 1fbd
00000380: 8fbb 4b3d 0504 0f3b cb1e 903d 8600 5abd
00000390: 1ff8 2d3e a019 dd3d b2e7 0c3e 978b 5d3e
000003a0: f527 6bbd 9388 8fbd caae 193d 21bd af3d
000003b0: 28fe ee3d b66f 43bd a179 4a3e e9f2 50bd
000003c0: f6b3 933d 34ed 1bbd 3aa2 ad3d 28d3 0e3e
000003d0: aed6 ce3c 68aa abbd 1737 6dbd 15df ac3d
000003e0: 3aa8 d4bc 57a9 813d 0d70 71bd 8b92 7dbd
000003f0: 6903 b93c 7bde 353e 6c3a 803d 5031 cb3c

lstm.weight_hh_l0 f4 [256, 64]
0.031391006 -0.13009953 -0.046264313 -0.059794586 -0.01113511 0.004494936 -0.088898286 0.11009751
-0.16626365 -0.025765486 0.11083888 -0.058122125 -0.14461176 0.12034793 -0.040086616 0.40727153
-0.12639555 -0.046890043 -0.045741726 -0.10209598 0.29957 0.14190291 0.09711041 0.0514029
0.107381515 0.050223 0.19188277 -0.06801042 0.007398301 -0.07821556 0.009596056 -0.0235613
0.06894655 0.16201943 -0.028598258 -0.01487926 -0.05011002 -0.03916865 -0.040708117 0.025375402
-0.14973547 -0.06999759 -0.04919664 0.11147688 0.24255608 -0.21737185 -0.023330335 0.14208196
0.0065168478 -0.03532341 -0.1384379 -0.013283599 -0.061695278 0.24162756 -0.038903527 -0.12018176
-0.10224993 -0.2630899 -0.2886569 -0.2520638 -0.23548399 -0.1443825 -0.2503297 0.033233896
-0.16442126 -0.00999131 -0.25857794 -0.23382798 -0.29807523 -0.076152705 -0.120172545 0.079381235
0.11273532 0.39674044 0.25302708 0.18482116 -0.13642038 0.06387818 0.21201019 0.0006519916
-0.20333864 -0.17913646 -0.30686513 0.2204174 0.22953051 0.24854623 0.12181134 0.20632455
0.22479989 0.064706594 0.2879026 0.073503576 0.062204022 -0.3584014 0.3572498 0.023041012
0.20046121 0.115369044 0.12513484 -0.50411403 0.2623003 -0.16174123 -0.20778732 -0.17760049
-0.41560936 -0.32513073 -0.027352236 -0.06752494 -0.23604208 -0.29836953 -0.19569823 -0.037527576
-0.04075035 -0.24531986 -0.037274513 -0.36825222 -0.27168098 0.0913366 -0.18406369 -0.20603998
-0.28217083 -0.34769687 0.13388218 -0.3427865 -0.04561009 -0.2378773 -0.24682914 -0.070769206
0.066664115 0.08990911 0.13700853 -0.016339991 0.13029219 -0.050102122 -0.034714855 -0.07549422
-0.08220636 -0.038195144 -0.058762282 0.018537011 0.15424514 0.06761804 0.027517553 0.015148613
0.021721562 0.13935223 0.2048049 -0.15973258 -0.048502404 0.16102687 -0.039131872 -0.1588192
0.06544201 -0.07203376 -0.09099037 0.026043233 0.07506961 -0.031624705 -0.1148122 -0.14429235
-0.22262605 0.16328031 0.030406917 -0.09410786 0.10987148 -0.054935556 0.1255422 0.108003154
-0.028801724 0.11566209 -0.02214543 -0.05061845 -0.08869637 0.1894982 0.06396695 -0.017632047
0.025456497 0.050718468 -0.029885357 0.1318034 -0.014016241 0.16090491 0.1344807 0.07686189
0.12148213 -0.0061112996 0.029479368 -0.065198556 0.07714273 0.07962309 0.17533943 -0.027815003
0.07995977 -0.04057212 0.08982119 0.13023366 0.046117693 0.013431753 0.14299612 0.027071912
0.04250363 -0.13417692 -0.082658544 -0.15131347 -0.0112059 0.13099585 -0.057495765 0.072083175
-0.014370822 -0.0055776997 0.054012503 -0.105448216 -0.0045847143 -0.04449327 -0.027181339 0.046042852
-0.07383429 0.108798586 0.057898812 -0.033184733 0.13420866 -0.021911714 -0.11002028 0.010294923
-0.004527216 -0.013203449 0.0062498543 0.084470585 0.032970276 -0.030577384 0.175082 0.08143449
-0.0549911 0.0243557 0.0771279 -0.10645765 -0.041384 0.16842309 0.010712272 0.05604167
-0.08693447 0.12326 -0.112734005 0.12229906 0.013999293 -0.08355065 -0.0005352299 -0.006462028
0.17343153 0.048437234 0.051306345 0.053866 0.054382406 0.15216586 0.13813487 0.14012228
00000000: db93 003d d038 05be a67f 3dbd 2beb 74bd
00000010: 0970 36bc 424a 933b 4e10 b6bd ce7a e13d
00000020: 0541 2abe 2412 d3bc 7fff e23d 7711 6ebd
00000030: 1b15 14be fa78 f63d dd31 24bd e585 d03e
00000040: d66d 01be c60f 40bd ad5b 3bbd b217 d1bd
00000050: 3d61 993e ff4e 113e d3e1 c63d d98b 523d
00000060: d7ea db3d a2b6 4d3d eb7c 443e 0c49 8bbd
00000070: 726d f23b 7b2f a0bd c738 1d3c a103 c1bc
00000080: d933 8d3d 6ce8 253e e546 eabc 24c8 73bc
00000090: 2a40 4dbd 4e6f 20bd 8ebd 26bd 13e0 cf3c
000000a0: 4154 19be e55a 8fbd 6a82 49bd fe4d e43d
000000b0: 9f60 783e ba96 5ebe 421f bfbc ef7d 113e
000000c0: 488b d53b 48af 10bd aac2 0dbe 74a3 59bc
000000d0: 30b4 7cbd 376d 773e 4e59 1fbd db21 f6bd
000000e0: 6968 d1bd b8b3 86be d6ca 93be 820e 81be
000000f0: b722 71be 02d9 13be 372b 80be 4420 083d
00000100: 0c5e 28be 97b2 23bc 5464 84be 9a70 6fbe
00000110: 519d 98be f3f5 9bbd 061d f6bd a192 a23d
00000120: c7e1 e63d 9021 cb3e c48c 813e c241 3d3e
00000130: c9b1 0bbe 90d2 823d 3319 593e 6aea 2a3a
00000140: 0138 50be 8c6f 37be 6d1d 9dbe 19b5 613e
00000150: 0c0a 6b3e e782 7e3e 3978 f93d be46 533e
00000160: f131 663e e484 843d f867 933e 0b89 963d
00000170: a5c9 7e3d 6380 b7be 72e9 b63e 81c0 bc3c
00000180: b445 4d3e 9b46 ec3d 5923 003e 9e0d 01bf
00000190: 3a4c 863e 7e9f 25be 33c6 54be e7dc 35be
000001a0: c0ca d4be 8977 a6be cc11 e0bc 844a 8abd
000001b0: 04b5 71be e4c3 98be 1e65 48be 84b6 19bd
000001c0: d7e9 26bd 2135 7bbe 29ad 18bd 8e8b bcbe
000001d0: c519 8bbe af0e bb3d 317b 3cbe 25fc 52be
000001e0: b278 90be 5305 b2be 6918 093e b681 afbe
000001f0: a5d1 3abd 1b96 73be c7c0 7cbe 72ef 90bd
00000200: 3287 883d 4422 b83d f74b 0c3e 72db 85bc
00000210: 516b 053e e237 4dbd 2a31 0ebd b79c 9abd
00000220: cf5b a8bd 8372 1cbd b8b0 70bd eeda 973c
00000230: 70f2 1d3e 547b 8a3d 7e6c e13c e331 783c
00000240: 6bf1 b13c 5ab2 0e3e 60b8 513e f090 23be
00000250: 75aa 46bd 3ae4 243e be48 20bd 80a1 22be
00000260: 7606 863d 7086 93bd 2959 babd 9e58 d53c
00000270: 18be 993d e888 01bd a922 ebbd 60c1 13be
00000280: 15f8 63be f432 273e ed17 f93c 9fbb c0bd
00000290: 4c04 e13d 1b04 61bd 228e 003e c230 dd3d
000002a0: 98f1 ebbc 3fe0 ec3d 556a b5bc 4b55 4fbd
000002b0: 71a6 b5bd d10b 423e 1b01 833d 1571 90bc
000002c0: 258a d03c 2bbe 4f3d 23d2 f4bc 78f7 063e
000002d0: 60a4 65bc 42c4 243e 4fb5 093e c469 9d3d
000002e0: 9fcb f83d 4c41 c8bb b77e f13c d286 85bd
000002f0: 02fd 9d3d 6e11 a33d 2e8c 333e 4adc e3bc
00000300: f3c1 a33d f42e 26bd 2cf4 b73d f95b 053e
00000310: e8e5 3c3d db10 5c3c 936d 123e eac5 dd3c
00000320: 4918 2e3d ad65 09be e248 a9bd ebf1 1abe
00000330: f498 37bc c723 063e ae80 6bbd 58a0 933d
00000340: 9973 6bbc 23c5 b6bb 373c 5d3d 3cf5 d7bd
00000350: 5f3b 96bb 933e 36bd 66ab debc 6e97 3c3d
00000360: 6f36 97bd cbd1 de3d 4e27 6d3d b7ec 07bd
00000370: ff6d 093e 3280 b3bc 5052 e1bd 09ac 283c
00000380: 0a59 94bb 4753 58bc 94cb cc3b eafe ac3d
00000390: d70b 073d 6c7d fabc b248 333e 20c7 a63d
000003a0: 593e 61bd 9b85 c73c 3cf5 9d3d 7806 dabd
000003b0: 4582 29bd 1a77 2c3e 8682 2f3c f38b 653d
000003c0: b30a b2bd bd6f fc3d 16e1 e6bd ee77 fa3d
000003d0: 4a5d 653c 9a1c abbd ac4e 0cba 6bbf d3bb
000003e0: 0998 313e 1f66 463d 9a26 523d 98a2 5c3d
000003f0: 16c0 5e3d 5ed1 1b3e 3a73 0d3e 377c 0f3e

lstm.bias_ih_l0 f4 [256]
-0.20502533 -0.34036988 -0.0041724956 0.1704392 0.030994702 0.1274798 0.063656695 0.17081164
-0.087372445 -0.022043528 -0.046947535 -0.0601432 0.10139265 -0.109235816 -0.00042421155 0.08384898
0.15946084 -0.07410585 0.027312396 0.15977545 0.28479436 0.07611413 -0.23453821 0.20466359
-0.029078025 0.14188886 -0.043247957 0.23028436 0.12300345 0.23695083 -0.23217677 0.04833895
0.024267413 0.2698809 0.0023584573 -2.4376443e-06 0.017640699 0.14399342 -0.024681052 -0.07503831
0.20126367 0.011617515 0.019361584 -0.08536404 0.06500547 0.1729926 -0.1666568 0.021925867
-0.28665093 0.08346164 -0.062973715 0.16759485 0.06357622 0.011989219 -0.12270658 0.27108556
-0.017143894 0.009244232 -0.036402307 0.16354789 -0.012925754 0.1850063 -0.40849257 -0.004047341
-0.28819895 0.14332606 -0.0012308945 -0.0083104065 0.05186579 0.002368151 -0.048663974 -0.12855358
0.026650973 0.02882283 0.044578817 0.018629523 -0.10649363 -0.018467624 0.03915994 0.08809631
0.013271052 -0.1168519 -0.025918642 -0.104011536 0.061068464 0.102575466 0.040323183 0.1754956
0.17172971 -0.048006244 0.19163796 -0.17134693 -0.017647944 -0.10465324 -0.2434707 0.016214676
-0.06242269 -0.12658048 0.07192313 -0.038162593 0.0019833362 -0.009381114 0.07582363 -0.15552118
-0.27420703 0.16183724 0.10327214 -0.04168823 -0.082490265 0.061898723 0.3599205 -0.2836114
0.11373058 0.29164016 0.21827254 0.11091178 0.02244311 -0.019774126 -0.093946435 -0.08848676
-0.06682224 0.18302678 0.18050429 -0.061970294 0.15473238 -0.18969724 0.2576085 0.09625582
0.17447077 0.17702353 0.20178615 -0.0061364532 -0.17837547 -0.15271856 -0.22185645 0.1656422
-0.19062701 -0.11598807 -0.25444314 -0.02519723 -0.08460159 0.08832654 -0.15383033 0.120973095
0.13981001 0.019498983 0.092084944 -0.022613766 -0.24744467 0.0057133646 0.12681834 -0.07683346
-0.20478785 0.3070102 -0.06224826 -0.065336846 0.19761135 -0.11377625 -0.22869118 0.005878628
0.088099755 -0.07610305 0.026510535 -0.09241902 -0.074962296 -0.1542256 0.09183327 0.122644395
-0.008621912 0.16614999 -0.00048435153 0.104890004 0.06795003 -0.06221569 0.03130492 -0.22932374
-0.046480358 0.0026534367 -0.16608188 0.10181561 0.12519911 -0.0123778805 -0.091331564 0.044788573
0.04484088 0.039027378 -0.086053744 -0.15849788 -0.1280446 0.055669896 0.08522466 -0.128716
0.061555117 0.17579897 -0.046494078 -0.122734174 0.31188774 0.17665529 -0.06792944 0.15326911
0.21305086 0.049344067 0.25389796 0.031459864 -0.13178656 0.2966516 0.003185992 -0.021592058
0.414017 0.1836646 0.005416167 0.29182354 0.09036404 -0.3363143 -0.35524526 0.101458065
0.12366225 -0.1328409 0.14974599 -0.16393882 -0.058634672 -0.017919706 0.049281325 -0.29224232
-0.33789468 -0.4050746 -0.06362295 0.33947933 -0.22173697 -0.009945911 -0.1285242 0.081426725
0.084259324 -0.0068720095 0.2900129 0.016428964 0.22264099 -0.18484299 0.12841512 0.12824652
0.26584208 0.05985441 0.4221024 0.0077788997 0.19585226 -0.13200037 0.026703985 0.26812422
0.03742566 -0.25742286 0.19580154 0.0747738 0.29459295 0.20299034 0.30317807 -0.18158124
00000000: 29f2 51be f644 aebe 6eb9 88bb 9d87 2e3e
00000010: 9ae8 fd3c 118a 023e 715e 823d 3fe9 2e3e
00000020: 53f0 b2bd a194 b4bc 0f4c 40bd b758 76bd
00000030: f3a6 cf3d 07b7 dfbd b668 deb9 04b9 ab3d
00000040: b449 233e cfc4 97bd 3fbe df3c 2d9c 233e
00000050: 91d0 913e bae1 9b3d c92a 70be 5593 513e
00000060: 0a35 eebc 504b 113e c524 31bd aacf 6b3e
00000070: 3ce9 fb3d 3da3 723e bfbf 6dbe 10ff 453d
00000080: 74cc c63c d42d 8a3e 5990 1a3b 6996 23b6
00000090: 3a83 903c 0373 133e eb2f cabc afad 99bd
000000a0: 1018 4e3e 6457 3e3c 2f9c 9e3c 58d3 aebd
000000b0: 9621 853d f924 313e 15a8 2abe e09d b33c
000000c0: e9c3 92be f0ed aa3d 5df8 80bd fc9d 2b3e
000000d0: 4034 823d 6e6e 443c 964d fbbd bacb 8a3e
000000e0: 5a71 8cbc 1f75 173c 961a 15bd 1979 273e
000000f0: 8bc6 53bc 4b72 3d3e f025 d1be 8f9f 84bb
00000100: d08e 93be 11c4 123e f755 a1ba 5f28 08bc
00000110: 3971 543d fb32 1b3b e053 47bd 8da3 03be
00000120: 2453 da3c db1d ec3c 4798 363d f19c 983c
00000130: 5519 dabd 6a49 97bc 2c66 203d d76b b43d
00000140: d46e 593c 0d50 efbd 5553 d4bc 0004 d5bd
00000150: ed22 7a3d 1613 d23d ec29 253d 1eb5 333e
00000160: ead9 2f3e 32a2 44bd be3c 443e 9275 2fbe
00000170: 6c92 90bc 7054 d6bd 6250 79be a4d4 843c
00000180: efae 7fbd 509e 01be 6f4c 933d 6150 1cbd
00000190: dcfa 013b 3eb3 19bc 6b49 9b3d f240 1fbe
000001a0: dd64 8cbe a9b8 253e 5880 d33d 47c1 2abd
000001b0: a8f0 a8bd 8489 7d3d 8047 b83e 8335 91be
000001c0: 94eb e83d dc51 953e d682 5f3e b725 e33d
000001d0: 9dda b73c 59fd a1bc fd66 c0bd 8c38 b5bd
000001e0: 19da 88bd 5f6b 3b3e 1ed6 383e 90d4 7dbd
000001f0: 2a72 1e3e fe3f 42be 43e5 833e c521 c53d
00000200: 77a8 323e a845 353e 07a1 4e3e 4d14 c9bb
00000210: 0fa8 36be 4162 1cbe 562e 63be 1c9e 293e
00000220: ba33 43be 278b edbd 5f46 82be 6c6a cebc
00000230: 9943 adbd 8ce4 b43d b385 1dbe bec0 f73d
00000240: 5b2a 0f3e 55bc 9f3c 0897 bc3d 8140 b9bc
00000250: 2362 7dbe 2d37 bb3b abdc 013e dc5a 9dbd
00000260: e8b3 51be 7130 9d3e 08f8 7ebd 53cf 85bd
00000270: a15a 4a3e 8603 e9bd 052e 6abe 82a1 c03b
00000280: a56d b43d eadb 9bbd 9f2c d93c 2f46 bdbd
00000290: d585 99bd 51ed 1dbe 1513 bc3d fc2c fb3d
000002a0: ec42 0dbc 3923 2a3e 90f0 fdb9 92d0 d63d
000002b0: 6329 8b3d e1d5 7ebd 9639 003d d8d3 6abe
000002c0: 3062 3ebd 48e5 2d3b 5e11 2abe b484 d03d
000002d0: 3234 003e 98cc 4abc 0b0c bbbd 3974 373d
000002e0: 12ab 373d 2cdb 1f3d f23c b0bd 454d 22be
000002f0: 201e 03be 1e06 643d 448a ae3d 21ce 03be
00000300: 3821 7c3d a504 343e 9370 3ebd 0e5c fbbd
00000310: c0af 9f3e 20e5 343e 971e 8bbd 94f2 1c3e
00000320: 012a 5a3e 011d 4a3d eafe 813e 0fdc 003d
00000330: 0ef3 06be b8e2 973e 13cc 503b d4e1 b0bc
00000340: 09fa d33e 9312 3c3e 1a7a b13b e569 953e
00000350: c810 b93d 6331 acbe b5e2 b5be 3fc9 cf3d
00000360: a242 fd3d 7207 08be 0357 193e 94df 27be
00000370: e92a 70bd 59cc 92bc 37db 493d c9a0 95be
00000380: 8800 adbe f065 cfbe c04c 82bd 3cd0 ad3e
00000390: 040f 63be 2df4 22bc d99b 03be 0ec3 a63d
000003a0: 2790 ac3d 982e e1bb 927c 943e 0996 863c
000003b0: 00fc 633e 7b47 3dbe 417f 033e 0e53 033e
000003c0: 741c 883e e629 753d ce1d d83e 24e6 fe3b
000003d0: 7f8d 483e 1b2b 07be 51c2 da3c 9447 893e
000003e0: a64b 193d eecc 83be 3380 483e 0223 993d
000003f0: e3d4 963e b3dc 4f3e 283a 9b3e 6ff0 39be

lstm.bias_hh_l0 f4 [256]
0.016930984 -0.24026768 0.08771186 -0.023432743 -0.0846425 0.12162216 0.20890942 0.15402012
-0.045886643 -0.062016115 0.0043837884 -0.08982543 -0.011941695 0.083146796 0.14545831 -0.034713414
0.067963436 0.07498619 -0.045949645 0.26318297 0.26884758 0.14638656 -0.19611515 0.07532952
0.07662417 0.03257297 -0.011310668 0.26159018 0.16527922 0.026812784 -0.22590958 0.022458836
-0.048500914 0.35709605 -0.12954944 -0.030688178 0.19200657 0.110993765 0.05808945 0.00039296685
0.23722467 -0.05574779 0.115423866 -0.078804 0.0910042 0.0063158744 -0.012188196 0.046131197
-0.29797038 0.0058213146 0.00023863213 -0.052446514 0.100525856 -0.083429456 0.10579036 0.29425845
0.13931277 -0.034136854 0.16612585 0.22306998 0.18195796 -0.028849924 -0.42525262 -0.019400602
-0.32637486 0.07933183 -0.05351157 0.025935197 -0.048225585 -0.027176874 0.01971672 -0.2264878
0.038865753 -0.08894222 -0.024203151 0.035781566 -0.044533934 0.18091069 0.013449788 0.16197181
0.022370845 0.07219652 0.12741114 0.10022768 0.09044688 0.10373435 0.07772792 0.028342519
0.31080222 0.123683184 0.17970194 -0.19520499 -0.0069544734 -0.17055699 -0.028435899 0.13800329
0.1233346 -0.27434427 0.061295077 -0.009758427 0.033272374 0.22410426 0.087419786 -0.08056502
-0.2059027 0.096510686 0.08467782 -0.11454087 0.019677017 0.16637294 0.42933023 -0.29970077
0.029526247 0.31717664 0.14830035 -0.06309693 0.032192558 0.10285912 -0.14707872 0.021029271
0.018161166 0.007019483 0.0030547723 -0.0461101 0.056346197 -0.24542715 0.1538658 0.13307185
0.057248607 0.15635397 0.0805377 0.034291856 -0.055391148 0.009093366 -0.14192176 0.08486593
-0.05841982 0.00626973 -0.036007125 -0.074698925 0.0013842906 0.053948093 -0.10973937 -0.025509452
0.29211345 0.20714433 0.20600134 -0.029082725 -0.30847153 -0.024347445 0.15070888 0.042108756
-0.085755885 0.26737186 0.04789494 -0.24021474 0.13340043 -0.059651885 -0.21513008 -0.14141096
0.14418434 -0.05053669 0.026514081 -0.004175037 -0.19228737 0.013053868 -0.04375956 0.075192444
-0.11134681 0.18126653 0.16421953 0.15410717 -0.03665105 0.047093127 0.008821849 -0.30847496
-0.051618934 -0.08823198 0.00044132664 0.14695212 -0.05594719 -0.09180681 -0.23637126 -0.018853575
0.022990819 0.05153408 0.03861509 -0.101966485 -0.16764547 0.04146353 -0.090817556 -0.079434805
0.069301285 0.21005659 -0.007449151 -0.077780366 0.3428911 0.34295574 -0.012049693 0.18951547
0.1593362 0.09139064 0.24643272 0.020608 -0.061525416 0.38574165 -0.12327047 -0.04045857
0.37250915 0.26626498 -0.05659943 0.18374757 -0.104318105 -0.38873366 -0.50550467 -0.050456766
0.06701381 0.023466583 0.29670396 -0.1445272 -0.04965091 -0.16318297 0.014992323 -0.28528586
-0.21992214 -0.20845044 -0.13316754 0.22139086 -0.066463456 0.0064698644 -0.027615322 0.19172715
0.30067185 -0.18781283 0.23941767 0.093599334 0.008658187 -0.12852445 0.12063887 0.16290034
0.0755088 0.050689053 0.23137254 -0.05690022 0.26863605 -0.04489154 0.043350227 0.250035
0.18943642 -0.05550181 0.0273832 0.10254143 0.3792427 0.19390945 0.2656678 -0.33292434
00000000: d9b2 8a3c bb08 76be 47a2 b33d 06f6 bfbc
00000010: 0c59 adbd 0a15 f93d 5aec 553e 73b7 1d3e
00000020: a2f3 3bbd 9c04 7ebd e2a5 8f3b 65f6 b7bd
00000030: 19a7 43bc de48 aa3d 06f3 143e a72f 0ebd
00000040: 6a30 8b3d 5c92 993d b235 3cbd ebbf 863e
00000050: 64a6 893e 5ce6 153e 69d2 48be 5d46 9a3d
00000060: 22ed 9c3d 3c6b 053d 6150 39bc 26ef 853e
00000070: f53e 293e 7ca6 db3c d754 67be 98fb b73c
00000080: e5a8 46bd 4bd5 b63e 9ca8 04be c665 fbbc
00000090: 5f9d 443e b350 e33d 34ef 6d3d 1e07 ce39
000000a0: 06eb 723e cb57 64bd 5963 ec3d fe63 a1bd
000000b0: 6960 ba3d 65f5 ce3b 00b1 47bc 11f4 3c3d
000000c0: 938f 98be bac0 be3b 5339 7a39 28d2 56bd
000000d0: 80e0 cd3d 10dd aabd 9ea8 d83d 0ba9 963e
000000e0: 02a8 0e3e 16d3 0bbd e51c 2a3e 756c 643e
000000f0: 3053 3a3e ad56 ecbc b6ba d9be 03ee 9ebc
00000100: 9b1a a7be ba78 a23d f32e 5bbd 0d76 d43c
00000110: 3188 45bd 09a2 debc f584 a13c 6bec 67be
00000120: b231 1f3d 5727 b6bd b045 c6bc b18f 123d
00000130: 3769 36bd a740 393e 805c 5c3c f0db 253e
00000140: 1043 b73c c5db 933d 1178 023e 2b44 cd3d
00000150: 373c b93d ad72 d43d d12f 9f3d 922e e83c
00000160: 7821 9f3e 9c4d fd3d c903 383e d1e3 47be
00000170: 5ae2 e3bb 7ea6 2ebe 67f2 e8bc bc50 0d3e
00000180: da96 fc3d da76 8cbe 8c10 7b3d cfe1 1fbc
00000190: 9d48 083d 967b 653e 2509 b33d 46ff a4bd
000001a0: 28d8 52be 65a7 c53d 916b ad3d 6794 eabd
000001b0: b231 a13c ab5d 2a3e 2cd1 db3e 6172 99be
000001c0: 07e1 f13c fa64 a23e 0cdc 173e f738 81bd
000001d0: 58dc 033d cda7 d23d ce9b 16be 9445 ac3c
000001e0: bac6 943c b103 e63b 9332 483b f2dd 3cbd
000001f0: 45cb 663d 4151 7bbe ff8e 1d3e fd43 083e
00000200: 847d 6a3d 411b 203e f3f0 a43d 9e75 0c3d
00000210: d4e1 62bd 57fc 143c f053 11be 30ce ad3d
00000220: 9f49 6fbd 4f72 cd3b 357c 13bd c0fb 98bd
00000230: 1671 b53a adf8 5c3d 09bf e0bd 33f9 d0bc
00000240: e58f 953e a51d 543e 04f2 523e e53e eebc
00000250: fbef 9dbe 4b74 c7bc 6e53 1a3e 3b7a 2c3d
00000260: c8a0 afbd f7e4 883e 7c2d 443d dafa 75be
00000270: 1f9a 083e 8955 74bd 0f4b 5cbe 09ce 10be
00000280: 0fa5 133e 8fff 4ebd 0f34 d93c c0ce 88bb
00000290: fbe6 44be e4df 553c 393d 33bd 7ffe 993d
000002a0: cc09 e4bd ef9d 393e 2a29 283e 45ce 1d3e
000002b0: 691f 16bd b9e4 403d 8489 103c 6ef0 9dbe
000002c0: 606e 53bd f8b2 b4bd dc61 e739 9e7a 163e
000002d0: e128 65bd 3505 bcbd 4f0b 72be d072 9abc
000002e0: 3e57 bc3c 6615 533d db2a 1e3d ced3 d0bd
000002f0: 41ab 2bbe aad5 293d 8efe b9bd b7ae a2bd
00000300: d5ed 8d3d 1319 573e 0218 f4bb 504b 9fbd
00000310: 6c8f af3e e597 af3e 136c 45bc 5810 423e
00000320: 0729 233e 042b bb3d dc58 7c3e 1cd2 a83c
00000330: 1302 7cbd ee7f c53e 3a75 fcbd e3b7 25bd
00000340: 85b9 be3e e253 883e ced4 67bd 5328 3c3e
00000350: bba4 d5bd 1908 c7be c168 01bf c1ab 4ebd
00000360: 893e 893d fe3c c03c 95e9 973e f0fe 13be
00000370: c15e 4bbd 7019 27be 5ca2 753c fd10 92be
00000380: 4533 61be 0874 55be 125d 08be 49b4 623e
00000390: fe1d 88bd 2801 d43b 8739 e2bc 1f54 443e
000003a0: a9f1 993e 0252 40be e829 753e 02b1 bf3d
000003b0: 12db 0d3c ea9b 03be 8311 f73d 59cf 263e
000003c0: 5ca4 9a3d 539f 4f3d ecec 6c3e 3510 69bd
000003d0: aa8a 893e 31e0 37bd 0290 313d 9604 803e
000003e0: 9ffb 413e de55 63bd bc52 e03c 3e01 d23d
000003f0: 192c c23e 3390 463e 9c05 883e 0f75 aabe

fc.weight f4 [19, 64]
0.4875009 0.4945656 0.07689754 -3.3102226 -0.41267413 0.5302185 -0.3926662 -0.086555146
-0.38632953 -0.3376998 0.08054045 -0.4360511 0.19244955 -1.1579216 -0.34682623 -1.0267029
0.5188761 0.488486 -0.07993758 -0.24270071 0.22749193 -1.6587243 0.7910607 -0.70249075
0.6563896 -0.3623524 -0.3135604 -0.1568028 -1.2009755 -0.7481953 -0.585137 -0.4454439
-0.16406055 0.8564736 1.0521562 -0.2484489 0.72105384 -0.24738511 -1.0491794 -1.6048076
-0.7760387 0.49472827 1.1463398 0.08390014 0.30257767 0.3053996 -1.882393 -0.22553298
-1.6610143 0.23147039 1.0291036 0.065298334 -1.0911149 -0.06504877 0.63691103 0.9702722
-0.93440074 -0.72646827 1.3012574 -0.8150473 0.17203565 0.1709768 0.026901562 0.19997111
-0.57482934 -0.29595953 0.38438612 -0.61751235 0.1923622 0.55365485 -1.0159863 0.3266606
0.57733333 1.0119795 -0.4421457 0.6474752 -1.0997568 -0.20759483 0.6687626 -0.17788476
-0.39434043 -1.098617 -0.34939533 0.28156906 0.6859287 0.6280109 -2.3645413 0.30442807
-0.30392587 -0.80592835 0.30256578 -0.19226186 0.15112191 -0.19449277 0.5581708 0.5342382
-0.6522239 0.9810315 1.6587734 -0.39781827 -0.6698356 -0.6353355 -0.51064897 0.30507907
0.91037154 -1.0504688 -0.4418384 -0.70635796 0.19933131 -0.9199084 -1.3919872 0.39542842
-1.1838162 0.42790025 1.0466272 -0.7698604 0.38232714 0.27700245 0.76745343 0.55793357
-0.5996341 -0.68642235 0.26351878 -0.6091516 0.50512654 0.6370393 0.27357453 -0.54521906
0.06496287 0.40111393 -0.7278217 0.40368366 0.64193726 -0.36627316 0.18015864 0.7060987
0.19239876 2.8474433 0.8416204 0.4419413 -1.5574603 1.1093173 0.013173191 -0.8343971
0.3898612 0.39406624 -0.94608504 -1.3087834 -0.109432966 0.2452911 0.24754988 -0.23954815
-0.368433 -0.11695525 1.5934364 -0.13172626 0.7451019 0.05830555 0.122581504 0.98223644
-0.029895557 -0.3609985 -0.54432577 -0.6220014 -0.42155015 0.31388333 -0.019609125 0.15450363
0.55218273 -1.4386615 0.040813584 -0.007853936 0.6116298 -2.0589418 0.028591305 -0.2994732
-0.717385 -0.75374395 -0.27420685 -0.76434714 -0.8280215 -1.8228506 0.15667492 -0.47478226
0.082932405 0.64042515 -0.70135486 -0.08542488 -1.5315597 -0.7525026 -0.85745484 -0.3575239
-0.43141085 -0.030690694 0.1897121 0.39720032 0.5229837 -0.41863218 0.22815648 0.73734385
0.7782568 1.2131515 0.4246301 0.05442477 0.4593322 -0.8253693 -0.1509394 -0.8786793
0.40252444 -0.5198301 0.75707394 -0.22560176 0.669752 -1.8357688 0.047883037 0.4900271
-0.04093494 0.2122151 -1.35876 0.12059996 -1.6516376 0.47940016 0.39589855 -0.19568351
0.041077536 -0.59210056 0.5154531 1.6521639 0.26200283 -0.068604745 0.12000198 0.9332355
0.23982424 1.0192336 -0.5941646 0.18606952 0.40644434 0.24624477 0.2958302 -0.07766705
0.3321434 1.1470834 0.39607653 -0.33416632 -0.2724705 -0.90875506 -0.06159658 0.1770101
0.03858839 -0.29153442 2.1787853 0.24309719 -1.9452007 1.5410674 0.60708255 0.43311542
00000000: b899 f93e b437 fd3e 757c 9d3d b0da 53c0
00000010: 064a d3be 66bc 073f 8b0b c9be d343 b1bd
00000020: fccc c5be fde6 acbe 64f2 a43d 1742 dfbe
00000030: 7f11 453e c636 94bf 3593 b1be 006b 83bf
00000040: 10d5 043f d61a fa3e 50b6 a3bd 8986 78be
00000050: a5f3 683e 1451 d4bf f482 4a3f 6fd6 33bf
00000060: 2609 283f 4186 b9be fd8a a0be ea90 20be
00000070: 91b9 99bf ba89 3fbf 8acb 15bf 3911 e4be
00000080: 7dff 27be db41 5b3f 0ead 863f 6369 7ebe
00000090: fc96 383f 8652 7dbe 834b 86bf 566a cdbf
000000a0: 79aa 46bf 064d fd3e 43bb 923f d6d3 ab3d
000000b0: 76eb 9a3e 565d 9c3e 41f2 f0bf 1ef2 66be
000000c0: 1e9c d4bf 9306 6d3e abb9 833f 22bb 853d
000000d0: a7a9 8bbf 4a38 85bd 9a0c 233f c263 783f
000000e0: e334 6fbf d3f9 39bf 9a8f a63f f1a6 50bf
000000f0: 1d2a 303e 8b14 2f3e aa60 dc3c 3ac5 4c3e
00000100: 0428 13bf 0288 97be 42ce c43e 4a15 1ebf
00000110: 99fa 443e 53bc 0d3f d70b 82bf 0f40 a73e
00000120: 1ecc 133f 8b88 813f ec60 e2be efc0 253f
00000130: d5c4 8cbf bd93 54be 0734 2b3f 6c27 36be
00000140: fde6 c9be 7b9f 8cbf f2e3 b2be d229 903e
00000150: 0699 2f3f 53c5 203f a554 17c0 ffdd 9b3e
00000160: 2c9c 9bbe 5251 4ebf e7e9 9a3e 4be0 44be
00000170: b4bf 1a3e 1d29 47be 48e4 0e3f d6c3 083f
00000180: 25f8 26bf e124 7b3f b052 d43f d6ae cbbe
00000190: 597a 2bbf 59a5 22bf e4b9 02bf 5333 9c3e
000001a0: 1c0e 693f c375 86bf a538 e2be e0d3 34bf
000001b0: 821d 4c3e 1e7f 6bbf a32c b2bf 9875 ca3e
000001c0: 4a87 97bf be15 db3e e1f7 853f 9215 45bf
000001d0: 62c0 c33e 44d3 8d3e d477 443f bcd4 0e3f
000001e0: 9f81 19bf 60b9 2fbf efeb 863e 5cf1 1bbf
000001f0: f94f 013f 0215 233f f611 8c3e 7a93 0bbf
00000200: 410b 853d ce5e cd3e 8652 3abf a0af ce3e
00000210: 0056 243f 2888 bbbe 827b 383e e2c2 343f
00000220: 2e04 453e 833c 3640 6f74 573f 2146 e23e
00000230: dc5a c7bf 1cfe 8d3f 5ed4 573c 0c9b 55bf
00000240: e39b c73e 0dc3 c93e a132 72bf 3786 a7bf
00000250: 641e e0bd 972d 7b3e b77d 7d3e 1c4c 75be
00000260: 40a3 bcbe 3c86 efbd b9f5 cb3f 40e3 06be
00000270: 00bf 3e3f cdd1 6e3d 030c fb3d d973 7b3f
00000280: 87e7 f4bc ccd4 b8be ef58 0bbf 7c3b 1fbf
00000290: 6cd5 d7be 51b5 a03e 51a3 a0bc 3336 1e3e
000002a0: d95b 0d3f 0f26 b8bf 252c 273d ccad 00bc
000002b0: c593 1c3f b4c5 03c0 5038 ea3c 8d54 99be
000002c0: 8ba6 37bf 5df5 40bf d764 8cbe 41ac 43bf
000002d0: 38f9 53bf 2b53 e9bf 646f 203e a916 f3be
000002e0: 77d8 a93d e7f2 233f fe8b 33bf 3df3 aebd
000002f0: 260a c4bf 03a4 40bf 2982 5bbf 5f0d b7be
00000300: e2e1 dcbe 0d6b fbbc e443 423e d75d cb3e
00000310: 42e2 053f f556 d6be daa1 693e 91c2 3c3f
00000320: d63b 473f 8c48 9b3f 1e69 d93e 82ec 5e3d
00000330: 972d eb3e 674b 53bf dc8f 1abe 20f1 60bf
00000340: af17 ce3e 9613 05bf 99cf 413f 2604 67be
00000350: de74 2b3f 79fa eabf 0121 443d d5e4 fa3e
00000360: 65ab 27bd ea4e 593e d9eb adbf 1dfd f63d
00000370: dc68 d3bf f073 f53e 37b3 ca3e 4261 48be
00000380: eb40 283d e793 17bf bcf4 033f 1b7a d33f
00000390: 3c25 863e a580 8cbd 99c3 f53d 86e8 6e3f
000003a0: 7c94 753e 3f76 823f 2c1b 18bf 0289 3e3e
000003b0: 7919 d03e 9727 7c3e 0e77 973e e70f 9fbd
000003c0: b30e aa3e a1d3 923f 8bca ca3e d917 abbe
000003d0: 4181 8bbe 2ca4 68bf b24c 7cbd 2342 353e
000003e0: dc0e 1e3d 0044 95be 3871 0b40 78ee 783e
000003f0: 56fc f8bf b241 c53f c369 1b3f 4ec1 dd3e

fc.bias f4 [19]
-0.0709538 -0.027691394 0.02772892 -0.10210621 -0.4656764 0.021484967 0.121768855 0.05814714
0.0876223 0.041580986 -0.27890185 -0.13459086 0.008284016 0.07724654 0.17411356 0.20326954
0.16508359 -0.18079072 0.029018542
00000000: 3a50 91bd 10d9 e2bc c327 e33c 101d d1bd
00000010: 236d eebe 3e01 b03c f361 f93d b22b 6e3d
00000020: 5273 b33d d350 2a3d 39cc 8ebe 30d2 09be
00000030: aeb9 073c 6f33 9e3d d34a 323e e425 503e
00000040: ac0b 293e 3421 39be 4bb8 ed3c
