gesture_model_moving_test.pt (torch, 216457 bytes, 8 tensors)

conv1.weight f4 [64, 99, 3]
00000000: 8402 243c 6524 8abd ce3e abbc 507c d2bc
00000010: 742d 7ebd f7af bebd a5d4 07bc b15d 843c
00000020: dbed 1f3d d17d 46bd c67d 04bc 23bc d6b8
00000030: 26b2 77bb 44ae d03c 3d65 62bd fd9e a3bd
00000040: cb0e 8abd 3ba4 283b 0b0b 6abc e68a 013d
00000050: 9c6b 903c 57c8 43bd 6344 8bbc 1a1e f83c
00000060: e34a 89bd 816d 0c3c 9d0a babd 721d aebd
00000070: c3a7 b3bc e855 99bd 38e1 563d ddb3 573c
00000080: 90a7 e5bb d699 49ba 6127 b0bb 2809 0abd
00000090: d407 88bd f53a 1abd 7681 873b 6eb8 15bd
000000a0: e318 a2bd a6ee b7bd 4de5 923c cac2 1d3d
000000b0: 7daa 113d 55f4 173d 3e0a f63c c1ff 93bc
000000c0: 9fb0 c3bd 90b5 1dbd 5221 adbd eae1 4dbb
000000d0: 08cd f4bb 9411 46bd dcd3 0abc f5a9 44bd
000000e0: 6908 a73c 2a3f 003d 7b8e 013d 51fc 20bc
000000f0: 1895 0ebd b46f 84bd 06c8 ac3a 5a98 7bbd
00000100: 1523 933b 6dce a4bb 8894 913d e79c cbbb
00000110: 7b44 1c3e 7a37 23bd d592 573d 7744 a6bc
00000120: 43ff b9bd fd08 3fbd 4fa4 43bd 3075 bb3c
00000130: b28f 953c 34ab 13bd a10a 633d 9e87 bdbc
00000140: fe5e 293d 80e4 093c ca4c f3bc 9e96 203b
00000150: 6180 82bc ddfb 4fbd 4e66 99bd c648 90bc
00000160: e4e1 0f3d aa81 a1bb ebb2 ae3d 7f66 833c
00000170: 3d3a 063a 72e5 bd3c 4313 08bd 3161 7bbd
00000180: fb5b 453c 5ab3 babc c657 cebc d49e 36bd
00000190: bddf 283d 6d97 acbc 59d0 e53c fb3c 533d
000001a0: d4ec f238 4078 e23c bfc9 33bd 4369 e2bb
000001b0: e675 b6bd c800 88bd 6a90 e7bd e26d 83bd
000001c0: 1cec f9bc 5b23 9bbd eaea c8bc a91a 65bd
000001d0: 592c 0e3e 4539 a33c c956 1fbd c53d 24bd
000001e0: 287c 60bd 7dbf e93c a659 69bd 2fe3 073c
000001f0: 6141 50bb ab45 803c 6915 9d3d 195a 083d
00000200: 19e5 903c 62f4 fdbc bed8 4fbc aee4 cb3c
00000210: f6c5 6abd b8dc 8fbb 6621 b8bc 0e16 71bd
00000220: 06c8 093c b8d3 bdba e21c 233d 1284 3abd
00000230: 8a10 8b3d ef34 67bc d41e 6d3d 7ffa 4dbd
00000240: f0fa 7ebd 0ba0 073d 65c4 fabc 6848 83bd
00000250: a7de 42bd 6606 a0bd b194 35bc 1973 d0bc
00000260: e5a1 f83d 93f2 94bc 61a6 61bd ded5 123d
00000270: dc42 39bb 5d1b 093d cbf0 dbbd de3b 4cbc
00000280: b917 debc 5bc8 81bd dea6 fabb 9148 e2bc
00000290: 511b 1a3e adb0 12bd 3747 153d 6bbc 31bd
000002a0: d642 973c 07a0 d73c 1670 b5bd f270 68bd
000002b0: 53a6 4b3d cc1d 2abc c04e 883d dc57 3fbd
000002c0: 39c8 a13d 3262 97bb 4302 b1bc df90 0f3d
000002d0: 75c4 3ebd a8f9 b23c f1c5 8bbd 51bf 6dbd
000002e0: ee7f 3b3d 2226 33bd df6a 91bc db34 ac3c
000002f0: 14aa 563d ee8e 01bd ef2f 9f3c f48f 4f3d
00000300: bdd5 9dbc 1b6c 3b3d 674b 1fbd e85f 45ba
00000310: ae99 7f3c 1816 74bd be3c 813d 6ef6 603d
00000320: 7c9a 9d3d c2fb fc3c 3c1c 41bd 726f ecbc
00000330: a276 29bd 0829 8dbc e397 e4bc 0e8f 243b
00000340: 842d 4dbd 4af4 70bd 1f7c 5b3c 8864 c9bc
00000350: 53c3 0f3d afdc 6ebc 8ecb 1fbd 47e9 38bb
00000360: 16a4 2bbd 869e 003d bfd2 f6bd 4a38 a33c
00000370: 25c1 393d 6e07 35bd d3cf 493c 996c 463d
00000380: 9ae7 973d 7145 1a3d 4d00 ac3c 8a87 633c
00000390: ba1f 9fbd 4939 123c 8c3c 95bc 6ed1 d4ba
000003a0: 5319 163d d860 18bd ff73 6f3d 5bd0 44bb
000003b0: b155 c23d 7552 86bd 1dd9 29bd f597 113c
000003c0: a20d 71bd 2c0d 58bd d7ab 5abc af62 3bbd
000003d0: c806 9d3b 8d87 c2bc 612b cabc bf0d 3ebd
000003e0: 83c1 a03d 3b8e b8bb 38ef 8e3c ba6d ecbc
000003f0: 933e c4bc 390c 80bd ab74 f6ba 9533 33bc
0.010010365 -0.06745223 -0.020903971 -0.025694042 -0.062055066 -0.093109064 -0.0082904445 0.016157957
0.039045196 -0.04845983 -0.008086627 -0.000102393584 -0.0037795394 0.025473721 -0.05527233 -0.07989309
-0.06741103 0.0025732655 -0.014284859 0.031626604 0.017629437 -0.04779848 -0.017000383 0.030287791
-0.06703737 0.00857103 -0.090840556 -0.0850171 -0.021930581 -0.074870884 0.05246088 0.013165441
-0.0070085004 -0.0007690465 -0.005375788 -0.03370014 -0.06642118 -0.037653882 0.004135306 -0.03655284
-0.07914903 -0.089810655 0.017931605 0.038515843 0.03556298 0.037098248 0.03003418 -0.018066289
-0.09555172 -0.03850323 -0.08453621 -0.0031415173 -0.0074707307 -0.048356608 -0.008473363 -0.048013646
0.020389752 0.031310238 0.03163002 -0.009825782 -0.034810156 -0.06466618 0.001318217 -0.06142459
0.004490266 -0.0050294907 0.07108408 -0.0062137726 0.15260498 -0.03984783 0.052630264 -0.020296318
-0.090818904 -0.04663943 -0.04776412 0.022883028 0.018256996 -0.036051944 0.05543006 -0.023135956
0.041350357 0.008416295 -0.029699702 0.0024503837 -0.015930356 -0.050777305 -0.07490216 -0.017612826
0.035127535 -0.0049287872 0.0853022 0.016040085 0.00051203725 0.023180697 -0.033221494 -0.061371986
0.012045856 -0.0227906 -0.025188338 -0.044585064 0.041229 -0.0210683 0.02805345 0.051571827
0.00011583572 0.02764523 -0.043893572 -0.006909521 -0.08909206 -0.06640774 -0.11306842 -0.06417443
-0.030508094 -0.07575103 -0.024526078 -0.05593363 0.13884105 0.01992477 -0.038901124 -0.04009797
-0.054805905 0.028533692 -0.05697026 0.008293911 -0.003177725 0.01565822 0.07670099 0.03328905
0.017687367 -0.03100032 -0.012685953 0.024889316 -0.057317697 -0.0043903254 -0.022476863 -0.058858924
0.008409506 -0.0014482653 0.039822467 -0.04553611 0.06790264 -0.014111741 0.057890728 -0.05028772
-0.06225103 0.033111613 -0.030611226 -0.06410295 -0.04757562 -0.078137204 -0.011082814 -0.025445508
0.12140254 -0.018182075 -0.055090312 0.03584849 -0.002826861 0.03347336 -0.10739287 -0.012465445
-0.027110921 -0.06337043 -0.0076492867 -0.027622493 0.15049483 -0.035813022 0.03644487 -0.04339258
0.018464487 0.026321424 -0.08859269 -0.056748338 0.049719166 -0.010383081 0.06655645 -0.04671465
0.078995176 -0.00461986 -0.021607524 0.03505027 -0.046574075 0.021847561 -0.06824864 -0.05804378
0.0457763 -0.04373754 -0.017751155 0.021021297 0.052408293 -0.03163045 0.019432036 0.050674394
-0.019266957 0.045757394 -0.03889027 -0.0007529245 0.015600605 -0.059591383 0.06310414 0.054922514
0.07695481 0.030881766 -0.047146067 -0.028861735 -0.041372903 -0.01723148 -0.027904456 0.0025109681
-0.050092235 -0.058826722 0.013396292 -0.02458407 0.035098385 -0.014578982 -0.039012484 -0.0028215216
-0.04190453 0.03140118 -0.120519154 0.019924302 0.045350213 -0.04419654 0.012317616 0.04844341
0.07417221 0.03766388 0.020996237 0.0138872955 -0.07769723 0.008924791 -0.018217348 -0.0016236731
0.036645245 -0.037201732 0.058460232 -0.0030031416 0.094890006 -0.06558696 -0.04146682 0.008886327
-0.058850892 -0.052746937 -0.013346634 -0.04574841 0.004792068 -0.023746276 -0.024678888 -0.046399828
0.078494094 -0.0056321896 0.017448053 -0.028860915 -0.023955619 -0.06252331 -0.001880308 -0.010937591

conv1.bias f4 [64]
00000000: 6207 033c 87ce a2bd f67f 96be 65bc 96bd
00000010: a8f7 8bbd 3a21 04be 6f4b 1cbd 001f 853d
00000020: a899 2c3e 3117 f13d 594d 443b fcc0 cc3c
00000030: 8d5f ddbc d23b 98bd c635 083b 1a7f 6bbd
00000040: a909 65bd ad29 4bbc 6e32 f6bc 6f0a c93b
00000050: cf01 f73a 650e 4e3e fe3a 663d 62da 45bc
00000060: 5e0e 88bd 1586 eabc 2491 023d 05ad 633d
00000070: 487b 49bd 1803 98bd 9097 debd 7a81 823d
00000080: 3351 bbbc 62cc 45bc 6808 98bd 0492 8ebe
00000090: a81d 9c3b af48 e23d 386d ffbc 93c1 30be
000000a0: 7bd4 02bd 0373 92be c0c1 8b3c ecc8 94bc
000000b0: fdd1 fabc b466 c3ba 8886 a03c a1b6 11be
000000c0: f484 78bd eb7b 4abd b772 e2bd 04c9 f83d
000000d0: b4e9 5a3d a53e d83a ea5d 0dbe 8033 b8bd
000000e0: 731a 25bd b717 babd 466d 5d3b 35e3 da3d
000000f0: 5123 213d 50e4 32bd b46f 88bd 15ce b3bd
0.007997366 -0.07949548 -0.293945 -0.07360152 -0.06834346 -0.129033 -0.038157877 0.065000534
0.1685549 0.117720015 0.002995333 0.024994366 -0.027023101 -0.07433285 0.0020784005 -0.05749426
-0.055917416 -0.012400073 -0.030053344 0.006135277 0.0018845143 0.20122679 0.056208603 -0.012075992
-0.06643365 -0.028628388 0.031876698 0.055584926 -0.049189836 -0.07422465 -0.10868752 0.06372352
-0.022865867 -0.012072654 -0.07423478 -0.27845776 0.0047642775 0.110490195 -0.03118001 -0.17261343
-0.03194092 -0.28603372 0.01706016 -0.018162213 -0.030617708 -0.0014907927 0.0195954 -0.14229824
-0.06067367 -0.049434584 -0.11057036 0.12147716 0.053445533 0.0016498162 -0.13805357 -0.08994198
-0.040308427 -0.090865545 0.0033787056 0.106878676 0.03934032 -0.043674767 -0.06661931 -0.087795414

lstm.weight_ih_l0 f4 [256, 64]
00000000: b1e2 b33d 0545 51be 509d 4abe 5905 dfbd
00000010: afad cfbd 523e 97be 6d02 c73c a7c2 f33d
00000020: 82b1 c9bd 6fa1 943e e388 a13d ddab 1a3d
00000030: c842 003e f3de cd3d 872a af3c 4139 ea3d
00000040: ac57 213e 47f0 e43c 84c0 a93d 6435 52bd
00000050: 3ed8 a83e c72e 8abc 2ce1 8fbd 8513 04bd
00000060: 54ba b9bc a9b4 2b3d 22ce 89bd ff67 643c
00000070: 42c3 6c3d f7ec 1d3e fdcf ac3d f897 8b3e
00000080: c3e7 b53d 235b 4dbd d31c 5dbe 598b 0f3d
00000090: ca62 a4bd a107 16be 6a51 28bd c8e4 02be
000000a0: 6296 b1bd cda6 eabd d138 9ebc 30ce 4bbe
000000b0: 7640 2dbe 6e92 033d 573c 663e 18bc 5fbd
000000c0: 98d7 c6bd 8368 b6bc fd83 dfbc 1053 96bd
000000d0: 5b62 0dbe cf56 fa3d a7d9 8c3d d10b 80bd
000000e0: 3808 7abe 1c64 8cbe 6f4c f8bd 0614 a53d
000000f0: 08d7 d93d c60b e0bd 5ba3 abbd 164d b83d
00000100: c5a7 01be 7249 583c 1265 debc 7ed9 193e
00000110: 2323 da3d 1045 9c3e 5b91 823d 9cac 27be
00000120: d741 9fbd a588 7f3d 79d8 473b 3528 f7bd
00000130: af7d 41bd 32d2 0d3d 0c1d d6bd 9d34 003e
00000140: 5358 a03e f2f0 dcbd 1012 df3d 5e50 b63d
00000150: 39ec 553e cea4 45be ed40 38be c131 be3d
00000160: 4c60 fcbb e3ad 52bc 8173 74bd 3ac4 37be
00000170: e445 d63d 14e4 0a3e 0392 223e 7c19 203e
00000180: a3fd b3bd 9cf8 85bd 246e 1a3f 727a 39be
00000190: 7b3f 733d 22ca e7bd badc 6b3d 97cf 4fbd
000001a0: 2dbf d9bd 4f1c 4abc bc99 aa3c 73ae 74bb
000001b0: 2f20 e73c 39c5 123e 3fb6 773e 8b6a abbd
000001c0: d228 80bd 2e8c 0e3d 1d86 81be f6c4 0ebe
000001d0: 11af 2abd 19c3 353d 177e 8a3c 27f1 f23d
000001e0: e555 a6bd 9a56 07be ce4f 463c 2cf6 06be
000001f0: efda 56bc 9080 b1bd cbcd 9f3d 5ed3 1abc
00000200: 81be b23d b705 c2bc bf14 3e3e cf98 cebd
00000210: e49f 34bd 8ff5 92be 2fe6 d73d a7f3 2fbe
00000220: c38f d23d 7f8c 653e 5be6 983d 7dea 84bd
00000230: d276 85bd 5434 863d 2999 e83d 4ce5 78bd
00000240: e2e6 603e 2695 b5bd 84ec b63d 6c61 dabd
00000250: 72b4 4fbd 1dcb 4b3d d71c ea3c c806 643d
00000260: 0d4e 80bd b51a 23bd 693b 45bd 7642 a53e
00000270: 728e 72bd c8c5 02be 40bd adbd 9ecf 003e
00000280: 60d1 763d 0b25 cf3d 9ef8 c1be ed74 6dbe
00000290: 3bc4 9e3d 7262 4bbe 0fba b8bd aed7 5d3d
000002a0: bc9d 02be e4ca f5bd 2666 bf3d 29c7 70bd
000002b0: 089a 2a3d d1e7 98bd 10d9 733e 0911 0cbb
000002c0: e5ea 983c c103 373c 4da0 c23e 3645 db3c
000002d0: 9fce 6abc 2f1c 113e f0c3 d2bc b679 24be
000002e0: 632c b6bd 735c 95bd 2f4f 9abd 3ae5 18be
000002f0: 3e6d 8f3d 6a7e 803d 5a0e fabc 87a0 a4bd
00000300: bbd4 e9bc c562 9cbd 7adf 953e 0a2d 04be
00000310: 90f3 dc3d ab31 0bbe 40a8 ff3c af0d 103d
00000320: f9c5 933b e3e1 38bd c38f f83d cf08 d83d
00000330: daa8 e8bd 16f1 1ebe 005a 773d a154 683d
00000340: 4a1e 82be d851 163d 7a43 103e df04 ea3d
00000350: d6af 823d 807a 4abe 4892 b9bd f497 f43d
00000360: bcd4 52bd 7d7b 97bd 1323 72bd f488 a1bd
00000370: 908e 8d3d 4f33 e6bd 3193 ecbd 0b2a a33e
00000380: c916 0a3d 5dab fcbd 3fd9 bcbe 0e02 fbbd
00000390: b35b 093d fcb5 27be 27c4 eebc 75e2 f5bd
000003a0: b9ad ac3d da7c 4cbe 284d cf3c 4d58 0f3e
000003b0: 7537 d3bd c77c 363d f4df bf3e 43e8 ea3d
000003c0: f860 d93d 8235 18bd 65af ab3d 33ff 3d3d
000003d0: 1826 d7bd 297c 033e df72 2ebe b7fc 233d
000003e0: c792 0bbe 94d4 53be 668f 923d e650 2ebc
000003f0: d935 97bd 6eeb a9bd dbaf d13c 3692 013e
0.08783472 -0.20436485 -0.19786572 -0.10889692 -0.101405494 -0.29539734 0.024293149 0.11902361
-0.0984831 0.29029414 0.07887437 0.037761558 0.12525475 0.1005229 0.021382583 0.114367016
0.157561 0.027946604 0.082886726 -0.05132045 0.3297748 -0.016868008 -0.0702537 -0.032245178
-0.022671856 0.041920338 -0.0672877 0.01394081 0.0578034 0.15422426 0.08438108 0.2726438
0.08882096 -0.050135743 -0.21593027 0.035045 -0.08026655 -0.14651348 -0.041093268 -0.12782586
-0.08671261 -0.11457596 -0.019314202 -0.19902873 -0.16919121 0.032122068 0.22483955 -0.05462274
-0.0970909 -0.022266632 -0.027284617 -0.07340062 -0.13807051 0.12223589 0.068774514 -0.06252254
-0.24417198 -0.27420127 -0.121239536 0.0806046 0.10636717 -0.109397456 -0.08380767 0.08999078
-0.12661655 0.0132011045 -0.027147803 0.15024373 0.10651233 0.3052144 0.063753806 -0.16374439
-0.0777623 0.062386174 0.0030494018 -0.12068216 -0.047239 0.034624286 -0.10454759 0.1252007
0.31317386 -0.10788144 0.10892117 0.089020476 0.20890893 -0.19301149 -0.17993517 0.092868336
-0.007701909 -0.012858841 -0.059680466 -0.17945948 0.10462549 0.13563567 0.15876012 0.15634722
-0.08788612 -0.06541559 0.6032431 -0.18113115 0.05938671 -0.11317851 0.057583548 -0.050735082
-0.10632167 -0.012335851 0.02082526 -0.0037335425 0.028213589 0.14333047 0.24190615 -0.08369931
-0.06257786 0.034801655 -0.25297633 -0.13942322 -0.041670863 0.044375513 0.016905827 0.118624024
-0.08121852 -0.1321663 0.012103988 -0.13179845 -0.013113721 -0.086670995 0.07802924 -0.009449808
0.08727742 -0.023684366 0.18562602 -0.1008774 -0.044097796 -0.2870297 0.10541951 -0.1718279
0.102813266 0.22416876 0.07465812 -0.064900376 -0.06516804 0.065529495 0.11357338 -0.06076555
0.21963075 -0.088663384 0.089318305 -0.10663113 -0.050709195 0.04975425 0.028578205 0.05567053
-0.06264887 -0.03982039 -0.04815236 0.32277268 -0.059217878 -0.1277076 -0.08483362 0.125792
0.06025827 0.10114487 -0.37884992 -0.23189135 0.07752272 -0.19861773 -0.09019863 0.054160766
-0.12755483 -0.12001589 0.09345655 -0.058783684 0.041650802 -0.074660905 0.23813272 -0.0021372458
0.018666694 0.011170329 0.38012925 0.0267664 -0.014331489 0.14170907 -0.025728196 -0.16062054
-0.08895185 -0.07293024 -0.07534634 -0.14931193 0.07003258 0.062741116 -0.030524421 -0.08038431
-0.02854382 -0.07636026 0.29272062 -0.12907806 0.10788643 -0.13593166 0.031208158 0.0351693
0.004509684 -0.045137297 0.12136795 0.10548555 -0.11360331 -0.15521654 0.060388565 0.056721333
-0.25413734 0.036699146 0.1408824 0.1142671 0.06381194 -0.19773293 -0.09061104 0.11943045
-0.05147241 -0.073966004 -0.05911548 -0.0788745 0.06911957 -0.11240255 -0.11551512 0.31868014
0.033713136 -0.123373725 -0.36884496 -0.12256251 0.033534717 -0.16378015 -0.029146267 -0.12006084
0.084315725 -0.19969502 0.025305346 0.13998528 -0.10313312 0.04455259 0.3747555 0.11470082
0.106141984 -0.037160404 0.08383063 0.046385955 -0.10505313 0.12840332 -0.17036007 0.04003593
-0.1363021 -0.20686561 0.07156257 -0.010639405 -0.073833175 -0.08296858 0.02559655 0.12653431

lstm.weight_hh_l0 f4 [256, 64]
00000000: 9a8c 783e 55ad e0bd 82b3 10bf df6d d0bc
00000010: 9803 f23d 3b1d 783d 57b6 f4bd 5530 2abe
00000020: 23eb 86be 5b55 8dbe fbf8 6a3e c3e0 b9bd
00000030: 12c3 ef3d 318c 80be 68a6 b23e 19f8 04be
00000040: 1c81 9e3d 0a5c 4bbe d656 c03c 23b5 1e3e
00000050: 1271 bebd a9e8 6cbd f473 aabe 41d9 72be
00000060: fc41 e5bd 8c26 73be 5aad 03be f015 1a3e
00000070: 2981 5abf 68e4 743e 94ac 73bd 8fdd 8f3d
00000080: d733 473e 717d 88be 0db1 9abe ac77 babe
00000090: 5de9 a5bc 872f c53b 4645 043d a6a1 88bd
000000a0: ff88 6f3d 355f 9cbd 9958 d53e 20cf 8b3c
000000b0: 2173 40be a0ef 5fbd 9ab9 c0bd f2dc 12bf
000000c0: c119 c5be 8fb0 c03e 8b04 42be d27e aabe
000000d0: 74eb 893d 9d1c adbd 511e 883e 8fa2 d93e
000000e0: 4aa9 18bd 66ba f53d 3fad 533e daf5 43be
000000f0: bd57 50be 2455 393e 3a14 64be ce60 bdbe
00000100: 58ea 623b 39ef 993e db8b 7e3e 7bdd a73c
00000110: d275 3a3e 3b56 d73d d1ef 36be 3212 a13d
00000120: 5436 263e 9b04 013e c238 b13e 8d8e 8a3d
00000130: 6e77 22be 0497 133d 606b 7fbe 3dcc debd
00000140: 22b9 67bd 6c92 1f3e c07e 65bd 37ab edbe
00000150: 8534 2b3e ed9b 9f3e f0aa d73d eecc 263d
00000160: 18df e0bd 3638 05bd ee22 e5be 45b6 a33d
00000170: 59a2 1e3e 5b89 c6bd 7459 bcbe eaf4 c43d
00000180: c959 5dbe adaf 163b 4e92 893c 9898 b0bd
00000190: 89c6 8d3c 4344 fd3d e5d1 b33d 65a1 483e
000001a0: fdcd 59be d7b8 cd3c 7494 85be 1729 07bc
000001b0: e5cc cbbd 8dad b5bd 7352 583e 664c e9bd
000001c0: 22f6 4e3d 21a5 603e 0037 37bd 2305 ddbd
000001d0: fd0e f7bd 7ddb da3d d7c2 2b3d d081 1cbd
000001e0: 69f6 fe3d ca62 113d 9435 a63d d5a5 89ba
000001f0: a16b 493b ad23 403e b7a2 22be 24c3 8ebb
00000200: 7187 a8bd 5596 33be 009e b63e 75ac 2e3e
00000210: a14d fe3d 8ad4 c1be 6f35 293e 43cb 533e
00000220: 7aa4 c1be decd b73d bb3e 433e 82a0 ad3e
00000230: b209 163e dc54 ebbe d040 913e d824 b33e
00000240: 18b2 05bf 2bec 79be 6832 7f3e 118c 4b3f
00000250: cc20 02be 7c90 09bf 4124 8ebd f155 ac3d
00000260: 0775 573f b6e6 f03e 6645 21bf 8d4c 02bf
00000270: f6cb 183f 4db5 89bd 9e91 573f 6c7b 8abe
00000280: 2c3b 243f 0beb 9f3c 4dc6 5fbe 5af2 c6bd
00000290: 0ba0 c13d f5de 003f 0561 693e 3c79 ef3c
000002a0: 694a 063f 6c61 02bf 151e 2c3e 595d ae3e
000002b0: b6b5 083e 0160 b03c baec 1ebc 85b7 8cbe
000002c0: a62c 963e aef4 dfbe 79b9 af3e 15ac c5be
000002d0: 61b3 d9bd abea f13d 12ed 803e 7937 47bf
000002e0: 4054 cfbe 30b8 043f 3ccd 22bb 2646 20be
000002f0: fc82 a03e 7e1d 773e 3358 013e 04a2 02bf
00000300: 433a f9bd e918 81bd 32df d3be 92e2 8fbe
00000310: c343 dfbd e8f1 813e fa42 8cbe 7c4c 43bd
00000320: 037b 6b3e b253 823c 1441 103d 0cc8 123e
00000330: f8a4 473e 957a 67be 7a53 193e 5ae8 043f
00000340: fb4f 02be 4140 50be 8958 5b3e e2cb c93d
00000350: 6524 a2be 1af8 163e 336a 243d fbba 833d
00000360: 801b e7bd 8a98 593e 5ee4 223e 05fb c3bd
00000370: 8dc4 75bc 7a72 893e 68bc a4bd 9506 0e3e
00000380: 271d 893c ebac b8be 307d 85be 7da2 5cbe
00000390: 9e9a d6bd f2fa a8bd ca0c 6d3e 897f fcbe
000003a0: 5093 7d3d 549f 26bc adab 9c3c e959 883e
000003b0: d352 34bd 43ce 59bd cfc4 623d 5413 67be
000003c0: 9cde d5be 31d8 adbe 3b9a 79be 3027 0fbf
000003d0: 9c46 37be c87c 983e 88ed d23d d578 c03d
000003e0: f331 0abe 264d 803e b1c6 ba3e aab3 2abe
000003f0: a9f2 a7be 6169 fb3d b623 53be da0c 3cbe
0.24272385 -0.109705605 -0.5652391 -0.025443016 0.11817092 0.06057475 -0.11948841 -0.1662
-0.2635127 -0.27604184 0.22946541 -0.09076073 0.117071286 -0.25106958 0.34892583 -0.12985267
0.077394694 -0.19859329 0.023478907 0.15498786 -0.0929891 -0.05783907 -0.3329159 -0.23715688
-0.11194226 -0.23745173 -0.12859097 0.15047431 -0.8535333 0.23915255 -0.059490755 0.07024681
0.19453369 -0.26658204 -0.30213204 -0.36419427 -0.020252878 0.0060176286 0.032292627 -0.06671457
0.05848026 -0.07635347 0.41669157 0.017066538 -0.18793918 -0.054671884 -0.09410401 -0.57368386
-0.3849621 0.37634704 -0.18947046 -0.3329988 0.06734362 -0.08452723 0.2658563 0.42506835
-0.03727082 0.11998443 0.20671557 -0.19136754 -0.2034597 0.18098885 -0.22273341 -0.3698792
0.0034624543 0.30065325 0.24858038 0.020491352 0.18209007 0.10514494 -0.1786492 0.078647986
0.16231662 0.12599413 0.34613615 0.06765471 -0.15865871 0.03603269 -0.24943304 -0.10878799
-0.05657304 0.155832 -0.05602908 -0.4641969 0.16719253 0.3117365 0.105306506 0.04072278
-0.10980052 -0.03252431 -0.44753212 0.079937495 0.15491618 -0.09694167 -0.36786997 0.09617026
-0.21616282 0.0022992895 0.016793396 -0.08622855 0.017306583 0.123665355 0.087802686 0.19592817
-0.21269985 0.025112553 -0.26089823 -0.008249543 -0.0995119 -0.08870993 0.21125202 -0.11391525
0.0505277 0.21937992 -0.044730186 -0.107919954 -0.12063406 0.10686395 0.04193386 -0.038209736
0.12449343 0.035494603 0.08115688 -0.0010501692 0.0030734318 0.18763609 -0.15882383 -0.0043567587
-0.082289584 -0.17537816 0.3566742 0.17057975 0.1241715 -0.37857467 0.1652429 0.20683007
-0.37820798 0.08974813 0.19066899 0.3391152 0.14652136 -0.4596318 0.2836976 0.34989047
-0.52224874 -0.24406497 0.24921572 0.795106 -0.12707824 -0.5373609 -0.06940509 0.084148295
0.84162945 0.47051018 -0.6299652 -0.5089806 0.5968622 -0.067240335 0.8420657 -0.27047288
0.6415279 0.019521257 -0.2185299 -0.09714194 0.09454354 0.50340205 0.22790916 0.029232614
0.5245729 -0.50929904 0.1680835 0.34055594 0.13350567 0.021530153 -0.009699995 -0.27483764
0.2933094 -0.43741363 0.34321192 -0.3860785 -0.10629917 0.118123375 0.2518087 -0.7781902
-0.40493965 0.5184355 -0.0024841568 -0.1565176 0.31349933 0.24132344 0.12631302 -0.51028466
-0.12169316 -0.06303579 -0.41381222 -0.28102547 -0.109015964 0.25379872 -0.2739485 -0.047680363
0.22996144 0.01590905 0.035218313 0.14334124 0.19496524 -0.22605355 0.1497325 0.5191704
-0.12725823 -0.20337011 0.21420492 0.09853341 -0.31668392 0.1474308 0.040140342 0.06432148
-0.11284542 0.21249595 0.15907428 -0.095693626 -0.015000475 0.2684515 -0.08043748 0.13869698
0.016737534 -0.36069426 -0.26072073 -0.2154636 -0.1047871 -0.08250989 0.2314941 -0.49316052
0.061908066 -0.010169823 0.01912483 0.26631096 -0.0440243 -0.053175222 0.055363473 -0.22565967
-0.417714 -0.33954003 -0.2437524 -0.5591917 -0.17898029 0.297827 0.10299212 0.09398047
-0.13495617 0.2505886 0.36479715 -0.16670099 -0.32802323 0.12275959 -0.20619091 -0.18364277

lstm.bias_ih_l0 f4 [256]
00000000: f572 c73d 9076 a9bb 023c debe c844 6abe
00000010: 5a8c 6bbe a186 b5bd 2580 32be 4d9d 8fbd
00000020: 8782 37bd 2f77 843e 34e2 973e 9ec8 f93d
00000030: 93f8 213e d2e8 ab3d 3838 9d3c 4116 e23d
00000040: 86fd 0c3e 07d0 a1bd f40c f93c c002 0fbc
00000050: 1847 e7bd af9c 0f3d be60 793d 1ae6 92bd
00000060: 7dbf 433d dd03 5a3c 91cb 283d eb81 513e
00000070: 073e 833e e46f 123a 825f 09bc a79f 8a3d
00000080: a7e1 873d bc4a 0ebe 62ba 053d 5261 a43c
00000090: a669 403c bbb7 7439 38ac 33be e1ec f8bd
000000a0: 0e9b a93d 4843 14bd 82c2 233d 82b6 1b3d
000000b0: e443 6abe 1119 753c f2f4 3d3c ec43 003f
000000c0: bc8f 103e 5600 90bd 83ef 3a3e 0da6 663e
000000d0: 5efb f23c 8594 bfbd dc61 863d b86a 293c
000000e0: a64d 433b 3e32 5e3e 4487 c0be 74cc 9ebc
000000f0: 7069 12bd 7bc7 e03d 6cca a83d cb9c 103d
00000100: af29 6a3e d337 b13e f4bb 453e 6e50 8b3e
00000110: c91e 3b3e ef3a ab3e 17c6 f33e 8942 a73d
00000120: 3246 9f3e ed95 713e cef5 b83d 7901 c53c
00000130: d93c 0a3d 2c4e 1f3d 92a5 f03e e3ae 263e
00000140: a64e f53e 2f97 6a3c 9db9 f23d 203a 2e3e
00000150: c5f9 1d3e 9ca0 d83d 811d 3c3e a93e 943e
00000160: 5912 063f 90e9 f03e 2367 2abd ba62 063e
00000170: 9a0e b53e 37e2 b23e bd9a c23e b1e1 c23e
00000180: 902f 2dbe cd00 683e 19e2 5a3e cb41 963d
00000190: 27c3 ed3e 0d19 1dbc 4b12 d93e 7aa2 423e
000001a0: 997b 363e 88ae f5b9 33cb 1c3f cfdf 723e
000001b0: 5bd8 c03e 092f febd 55f6 8a3e b724 f33d
000001c0: e253 0a3e 9334 5c3d 15e4 5f3e b265 ca3e
000001d0: 0919 823d 8a69 4f3e 3b9e 81bd d24f a43e
000001e0: 8bf6 3c3e 7ec5 933e a3cb 983e 1857 d43e
000001f0: f8dd 5d3d 7eff d33e 7e0f 373e 073d ac3e
00000200: 56fe c33d 4d4b 1e3e 6f55 0b3e 83ff 54bd
00000210: 0367 1dbe 7177 8f3e 4b44 9dbd 8dd0 d03c
00000220: 09bf 163e a634 9c3d 1cd0 b1bd 69de 86bc
00000230: d2de 65be e198 653e 0515 4f3e d699 e8bd
00000240: 0d82 cc3c 1dd7 8f3d 59df c1bd 8980 80be
00000250: 6b57 bdbd 79b8 1b3e 2f16 bc3d d3ed 19be
00000260: a031 65be d65f 62bd d6ab 853d d861 513e
00000270: 81c2 01bd 5ef2 efbd 8ac3 65be 125e 86bd
00000280: 0f45 42be dd49 823d b441 243e 316f ee3d
00000290: 9e8f 41be ffe5 abbd b1ed 3dbe bc31 cf3d
000002a0: afdf e4be e31e 49bc 333d 33be 4266 60bb
000002b0: 52e0 70bc d8d6 9cbd 2c71 bcbc d74c 103e
000002c0: 69e4 f93d 1aa0 2f3d 6dc3 fcbc 7feb 3f3b
000002d0: 0415 c23d 4e26 acbc 8938 0c3d c8b9 3e3e
000002e0: f8fc 0c3e 8d1f 56be 5125 853e 6473 803e
000002f0: 4f9e b4bc 8b04 a6bd 2134 103e 744e 51bd
00000300: b84f 8b3e d45a 983d 257f ae3e 3fd4 b0bd
00000310: a4be 47bd a99c 7e3e b7b5 1d3e 428c fb3d
00000320: d33f 2b3d 37b5 f33d c295 0a3e d9b8 02bd
00000330: 3e5e 253e a884 083a 9747 503d 7b27 423e
00000340: 2cd4 5b3d f0fd 4b3e a495 873e 99f3 b23c
00000350: 6708 8d3e 3580 b83d e79e 233e 489e 303e
00000360: 19e9 2b3e be70 a93e 9295 603e f6ca fa3e
00000370: 9849 b53e e9a8 cd3d c6a2 513e 6eed 3c3e
00000380: e5aa 91bb 6805 fc3e e275 c43c 232c d0bd
00000390: b717 8a3e 310c 383e 7453 d73d b1bc 7c3e
000003a0: 73f6 363e ca0a f33d 1768 843e a620 8bbd
000003b0: 5a3f e53d a445 933c 377c 75bc ec6e ce3d
000003c0: 16fd 273d f116 b13d 10e4 91bd 72ee 853e
000003d0: 58b2 22bd 27e4 213e f5c2 ee3d beed aa3e
000003e0: 7a8c 073e 094a 3bbe 194d ac3d 428a 743d
000003f0: 662f e6bd c101 0b3e ca1e 023e c769 d13e
0.09738723 -0.0051716045 -0.43405157 -0.228778 -0.23002759 -0.08863569 -0.17431696 -0.070124246
-0.044802215 0.2587218 0.29664767 0.12196468 0.1581748 0.08394016 0.019191846 0.11039401
0.13768587 -0.07901006 0.030401684 -0.008728683 -0.11292857 0.035061534 0.060883276 -0.07172795
0.04779004 0.013306585 0.04120976 0.20459716 0.2563326 0.0005586131 -0.008384587 0.067687325
0.06634837 -0.13895696 0.03264845 0.020065937 0.011743939 0.00023338098 -0.17546165 -0.12154556
0.082815275 -0.036196977 0.03998042 0.03801585 -0.2287746 0.01495959 0.011594044 0.5010364
0.1411733 -0.07031314 0.18255429 0.22524281 0.029660877 -0.093545 0.06561634 0.010340385
0.002980092 0.21698853 -0.376032 -0.0193846 -0.035745084 0.10975548 0.08241734 0.03530578
0.22867464 0.34612903 0.1930998 0.272098 0.18273462 0.334434 0.47612068 0.081669874
0.31108242 0.23592348 0.090312585 0.024048554 0.033749435 0.03889291 0.4700132 0.16277651
0.47911566 0.014318272 0.11851809 0.1701436 0.15427311 0.10577509 0.1837063 0.28954056
0.52371746 0.47053194 -0.041602265 0.13123599 0.35362703 0.34938213 0.3800868 0.38062814
-0.16912675 0.22656555 0.21375312 0.07336768 0.46437952 -0.009588492 0.4239677 0.19007292
0.17820586 -0.00046860077 0.6124756 0.23718189 0.37665066 -0.12411315 0.2714106 0.11872237
0.13508561 0.053761076 0.2186435 0.39530712 0.06352431 0.20255104 -0.06329008 0.32092148
0.18453424 0.28861612 0.29842862 0.41472697 0.054166764 0.41405863 0.17877004 0.3364031
0.09569995 0.15458412 0.13606809 -0.052001487 -0.15371327 0.28020814 -0.076790415 0.02549007
0.14721312 0.076272294 -0.08682272 -0.016463475 -0.2244828 0.224216 0.20222862 -0.11357467
0.024964357 0.070234515 -0.09466428 -0.25098065 -0.09245189 0.1520709 0.09183919 -0.15032129
-0.22382212 -0.055267178 0.06526916 0.2044748 -0.031679634 -0.1171615 -0.22437873 -0.06560911
-0.18971656 0.063617446 0.16040689 0.11642302 -0.18902442 -0.08393478 -0.18547703 0.10116908
-0.44701907 -0.01227543 -0.17503814 -0.0034240638 -0.01470192 -0.07658166 -0.023003183 0.14091812
0.12201769 0.042877294 -0.030854905 0.0029284654 0.09476665 -0.021014359 0.034233604 0.18625557
0.13768375 -0.20910473 0.26005033 0.25088036 -0.022048144 -0.08106335 0.14082386 -0.05110021
0.27209258 0.07439199 0.3408138 -0.08634233 -0.048765793 0.24864449 0.1540135 0.122826114
0.041808914 0.11899798 0.1353369 -0.031914566 0.16149232 0.00052077556 0.050849523 0.18960373
0.05366914 0.19921088 0.26481354 0.021844672 0.27545473 0.090088286 0.15978585 0.1724788
0.16788138 0.33093828 0.21932057 0.48982972 0.3540771 0.10041983 0.2047225 0.18449947
-0.004445421 0.49222875 0.023981992 -0.101646684 0.26971218 0.179734 0.10513964 0.24681355
0.1786745 0.11867292 0.25860664 -0.067933366 0.11193724 0.017977543 -0.014983228 0.100797504
0.041012846 0.08646954 -0.071235776 0.26158482 -0.039720863 0.1580969 0.11658279 0.33384508
0.13237181 -0.18289961 0.08413143 0.059702165 -0.11239509 0.13574888 0.12707058 0.40901014

lstm.bias_hh_l0 f4 [256]
00000000: 88aa 56bd d7e3 97bb 2cd3 babe 13e8 9bbe
00000010: e285 64be fd5e b03c 8c90 2cbd 8c09 a13c
00000020: 5e15 95ba 018a d83e 9be0 733e 0eeb 433d
00000030: fbf5 4b3e e9a2 263e c026 853d a5cf 6e3d
00000040: ab3a 0f3e 45ed eebd 8bef 813e 156e f43d
00000050: cda9 66be df4b 803c 4c26 7b3d a1e1 19be
00000060: 0d4a d23d b430 28be a5bf 6bbc cfbc a63d
00000070: db38 ed3d b4ac c7bd 2ffc 6cbd a408 b7bd
00000080: bca2 013e d4c6 d63c d1a9 81bd 0ae3 873d
00000090: e419 58be ba1d 5b3d 336f 06be c716 efbd
000000a0: 52f7 973d 6920 edbc 9988 2c3e d4c0 6e3d
000000b0: ac8e 95be 161b 803c 76d2 81bd dd1a 053f
000000c0: 91d8 023e e239 7f3d a2d8 bb3d 0b28 0a3e
000000d0: fa3a 093e 07bf d7bd 545c 8a3d c598 3b3d
000000e0: fe78 63bd 2389 aa3d c8e6 b1be 6ee7 473c
000000f0: 90c9 54bd 14c7 923d c9cc 173e e5e2 2dbd
00000100: c832 a93e 7a26 a23e 580c cd3e aef8 b63e
00000110: cf6d b13d 3f4f c23e 0f48 ec3e 4548 353d
00000120: f609 973e c63d de3d 5db5 2abc 04c6 743c
00000130: ccc0 4a3e dba2 cf3d 5ee7 de3e 5303 043e
00000140: 320f 983e dc21 ed3d bc66 cb3b ac3e cd3e
00000150: fc7c 8f3e 22b7 b13d 88ad 433c aa66 cd3e
00000160: 751e ff3e b25b f13e de82 a23d 4603 1a3e
00000170: 7f45 1f3e f3bb b03e 7ada 103f abbc cd3e
00000180: 242e d93c 4f31 423e 87d9 af3e 8ccb 083e
00000190: e9d3 b53e d3c6 b53c 03c5 be3e c464 9e3e
000001a0: 4b97 723e e620 80bb 2431 eb3e 87e9 183e
000001b0: 477b d23e 656a 8d3c 6ad4 183e 20ff 283e
000001c0: 53e2 873e bcd9 b93c 93e2 bc3e 4d7f 463e
000001d0: f372 083e 9bc4 803e 338d e4bc 84e6 9b3e
000001e0: 4914 993d a1c8 f13d 615f d93e 1c00 5a3e
000001f0: 4714 d93c 0a3d e43e 0c83 a43c 61b8 bb3e
00000200: 0578 33bc 3f50 6b3d 4ea1 74bd 9a76 903d
00000210: 4591 07be 1d83 ac3d 8122 a7bd a93f 193c
00000220: c456 c83d 36db 0a3e 4d6e 04be 66db b5bd
00000230: 0e6b 48bd 6d88 2a3e 4d7c 203e 87e1 98bd
00000240: b8d5 d23d 5dfe 8f3d f121 d8bd 0525 f1bd
00000250: 596d 613d 9fde bd3d 0563 293d af74 bebd
00000260: 5a75 f1bd d813 5dbd ba1e 093e 9cbe 503e
00000270: 034e 113b fef5 dd3d 1659 e5bd 5312 05bd
00000280: a8b5 92be e519 8abc 007c 843d a6c6 073e
00000290: 89ff 8cbe dd00 9f3c 452f 76be bd0e 193e
000002a0: fb1a afbe 3d18 92bc ec0e e6bd e643 95bd
000002b0: 9483 d63d 0497 06be e352 6bbc 038d 443d
000002c0: 745a 8fbc e0a0 2ebe 8bc9 1e3a a092 883d
000002d0: 9bc2 7a3e de87 c83c af9f b73d c8a8 413e
000002e0: f0a9 0e3e 2cfc 49bd fb30 ea3d 7c38 473e
000002f0: 4778 333c 34c3 2cbc ef7d a0bd ae81 32bb
00000300: 9c6c 3c3e 721c a03d 9e15 823e b952 343d
00000310: 1a9f af3d b3fa ae3d bbcf 433e 5c31 7f3e
00000320: f6c4 3e3e abd4 8c3d bb53 d13d 9a78 0b3b
00000330: 7f89 fc3d a8cf 433e a76b 3b3e dd1d 8dbc
00000340: 6c0a 063e 3c31 333e 8eda c73d 6e48 413c
00000350: 1c0f 3f3e a897 973e e9c2 453d 0e6b 293e
00000360: 44af ae3e e5d9 5c3e 2aa3 3e3e aa8e c13e
00000370: 7a0e b83e 6bc7 2c3e 8026 a23e 1cd9 8e3e
00000380: 2b99 643c bb0c fb3e d925 323e 79ce d0bd
00000390: 447d 4a3e bd4a ac3e 0f59 3a3e f2c7 bd3d
000003a0: 6b01 4d3e 1c8e ecbd 3b3d 993e 1c14 f93d
000003b0: 4615 873e 35d2 ecbd d78b 27be eb2c 573d
000003c0: 0e00 893e d3cd b9bd 6384 21bb 3f60 d13e
000003d0: 8255 17be 17f5 623e 2696 943d 7a02 ca3e
000003e0: d1ce 063d 4f07 1dbe 8c60 2f3e 5bbf 483e
000003f0: a9dc 4bbd da49 f53d 16a3 d33d 276e ba3e
-0.052408725 -0.004635315 -0.36489236 -0.30450496 -0.22316697 0.021529669 -0.04213004 0.019657873
-0.0011374166 0.4229279 0.23816149 0.047831587 0.19918053 0.16273083 0.065015316 0.058303494
0.13987224 -0.11666349 0.2537807 0.11935059 -0.22525711 0.015661178 0.06131582 -0.15027477
0.1026803 -0.16424829 -0.014388953 0.08141481 0.1158311 -0.097497374 -0.05785769 -0.08937195
0.12659734 0.026217856 -0.06331218 0.06635101 -0.21103626 0.053495146 -0.13128357 -0.11674266
0.074202195 -0.028946118 0.16848983 0.058289364 -0.29210413 0.015637916 -0.0633897 0.51994115
0.12777926 0.06231106 0.09172179 0.13491838 0.13401404 -0.105344824 0.067558914 0.04579999
-0.05553531 0.08326938 -0.34746385 0.012201173 -0.051950037 0.071668774 0.14824213 -0.04245271
0.33046556 0.3166998 0.4004848 0.35736603 0.086635225 0.37951085 0.46148726 0.044258375
0.29499787 0.10851626 -0.010419217 0.014939789 0.19800109 0.10138484 0.43535894 0.12891893
0.29699093 0.11578724 0.0062073153 0.40086877 0.28025043 0.08677508 0.011943229 0.4011739
0.49827924 0.4714027 0.07935117 0.15040311 0.15553854 0.34518394 0.5658337 0.40183005
0.02651126 0.18964122 0.34345648 0.13358897 0.35513237 0.022189533 0.37259683 0.30936253
0.23690526 -0.003910172 0.4593593 0.14932834 0.41109678 0.017262647 0.1492478 0.16503572
0.2653986 0.022686832 0.36891612 0.19384499 0.133251 0.25149998 -0.02789936 0.30449307
0.07474572 0.11805845 0.4245558 0.21289104 0.026498927 0.4457782 0.02008202 0.36664107
-0.010953908 0.057449576 -0.059724145 0.070538715 -0.1323901 0.084234454 -0.08160878 0.009353557
0.09782174 0.13560185 -0.12932701 -0.088797376 -0.04893022 0.16653605 0.15672417 -0.07464891
0.1029467 0.07030938 -0.10553349 -0.11774639 0.055035923 0.09270977 0.041354198 -0.092995994
-0.11789961 -0.053974003 0.13390628 0.20385212 0.0022171743 0.10837935 -0.111986324 -0.03248818
-0.28654218 -0.01685805 0.064689636 0.13259372 -0.27538708 0.019409591 -0.2404147 0.14947028
-0.34200272 -0.017833823 -0.11233315 -0.07288341 0.10474315 -0.13143545 -0.014363023 0.04798604
-0.017499186 -0.17053556 0.0006057254 0.066685915 0.24488299 0.024478849 0.08966004 0.18912041
0.13932014 -0.049312755 0.114351235 0.19455141 0.010953969 -0.010544587 -0.0783652 -0.002723794
0.18400806 0.078179255 0.25407118 0.044024203 0.08575268 0.08543911 0.19122212 0.24921173
0.18629822 0.06876501 0.102210484 0.00212816 0.12330913 0.19122183 0.18302785 -0.017226154
0.13089913 0.1749925 0.09758483 0.011797054 0.18658108 0.29607892 0.048281584 0.16544744
0.34118092 0.21567495 0.1861693 0.37804157 0.35948545 0.16872947 0.31669998 0.27900016
0.013952534 0.4903315 0.1739725 -0.101956315 0.19774348 0.3365077 0.18198036 0.09266652
0.20020072 -0.11550543 0.29929528 0.12162039 0.26383418 -0.11563531 -0.16361938 0.05253307
0.26757854 -0.09072461 -0.002464556 0.40893742 -0.14778712 0.22163807 0.07255201 0.39455014
0.03291208 -0.1533482 0.17126673 0.19604246 -0.049770985 0.11976977 0.103338405 0.36412165

fc.weight f4 [12, 64]
00000000: 2f00 d33e 64fc b9be 1eb5 9cbe 3282 b6bc
00000010: 03b5 0b3f 7b0b 18be 8bee f73e f1de c33d
00000020: f025 a8be 95e1 cc3d 8f32 5abe e246 963e
00000030: c834 ad3f 4d03 fc3c 9ce4 803e d500 003e
00000040: 4139 39be cd2c 193e 1ecf 123f fc62 3dbe
00000050: 94fb 17bf 2c43 48be 79ef 8b3e 11b8 ea3e
00000060: 8922 bdbd 8c0a a43e d8e7 9f3e 3ed9 6cbf
00000070: e12e 7cbd 6a1b 25bf 5e17 d8be 1336 03bf
00000080: a9e5 e0be db1f bfbe 8b0e e73e 2ceb d63e
00000090: cf7e 73be 3851 023f e2bd 993e 28a9 cbbe
000000a0: ed48 703e 078e ac3e 912b 8cbe 8627 c93e
000000b0: 1586 c43e b740 66bf c6cf fd3d fcc7 02be
000000c0: 438d 09bf 212e bd3e bbbc efbc 1a7e ce3e
000000d0: e494 953e 3847 04bf 58fd 44be 750b ec3e
000000e0: ae85 1d3e 5079 803e e533 953d 27ea 3fbe
000000f0: 0b85 17bf 2830 a2be 1fdd 5a3e 5b60 96bf
00000100: c204 ccbe a5c6 6e3e f583 3abe 4921 433d
00000110: aa53 86be d942 593e 31cc 8e3b 45cf 933e
00000120: 1f31 9c3e fc0f 973e 8672 4dbd 85f5 04be
00000130: 3d37 93bd 4d72 093e 33d3 a4be e9e1 74be
00000140: d0d2 cb3e d4f7 153e b20e 0cbe 4fc2 33bd
00000150: e6b0 dabe d2fe 813e 80f1 0f3e 4cc0 8d3e
00000160: c671 23bf 7f5a 4c3f 76a6 48bf 580a 843e
00000170: 5271 0d3e bd95 62bf c26b d1be 13af ef3c
00000180: ec66 07bf 7251 51bf 4e84 b23e e9ed 1c3e
00000190: bfa2 a73d 251d e5bd ee66 e23e 0ce0 d0be
000001a0: 80fd 4dbe 277b bb3d 41a7 f6bd eb13 3c3f
000001b0: 087c 67bf 61b1 d8be a704 9f3e 4048 043e
000001c0: ff8c 443e f02b 2ebe 992b dabe 7727 df3d
000001d0: fdcd c43d 27e7 d53d 6979 0fbe 8a0a f7be
000001e0: 9d6c ad3e edda bf3e e327 a5bf f953 3ebf
000001f0: 3d49 91be c383 1abf b511 7e3e 1115 da3d
00000200: b43e 4b3c c07f a5bd 82ca f6bd 1611 873d
00000210: 4b02 3dbe ea18 673d eeab 2bbf 2f73 9bbd
00000220: 4c4a e43e c1a1 8cbe ac27 15be 2045 e73e
00000230: b419 97be 0fb0 ae3c 3d09 e63e bf5a cbbe
00000240: 724a cabd e22f 9f3d 9aaa 623d 4876 0d3e
00000250: 2447 e1bd cb9d 7ebe c937 14bd 2001 2abe
00000260: 2ca9 5bbe 75e4 17be f9de e2bd 0208 233e
00000270: edb8 00bf fd2a 383f 2b35 1dbe 0b50 693e
00000280: 9ecf 343f d7a6 1dbf 0e59 4cbf 3a86 f73d
00000290: 1848 e1bd e55c a5be 88f0 edbd bfc1 b6bf
000002a0: 1796 9abc 4327 58bf a414 5e3f 4b0b 42be
000002b0: a970 2dbf 4744 343e 198d 39bf fe53 cdbd
000002c0: edbc 39be aa0b edbe 25e0 73bf 7f77 31bf
000002d0: d2f2 9abe a11e cd3e f930 123e 0fac bf3e
000002e0: 4abe 76bd 30e1 90bd ccec e6bc 55da 693d
000002f0: bdb4 653d 87e4 753f 0d65 b5bf 2482 bcbd
00000300: f569 833e 1505 6f3d 1061 1ebf 31e7 f0be
00000310: e37b 87bd 9820 9cbd 6ea7 003f 95a4 90bd
00000320: 3eea e6be ea80 94bb 378c d6bd 90ea e1bd
00000330: 838f 22bf 79e8 d83d 4185 89be 7cfb 883e
00000340: fddd 80be 831a dc3d 7927 2dbe aa81 4c3e
00000350: a405 183f 2647 033d 7ca4 09bf 50e1 16be
00000360: 4759 a2be 2170 94bd 91a7 a03f f93d 5d3f
00000370: d3bc 25bf 357d 233f 8e3f 043f f0a4 d03d
00000380: 5be2 023f eaea 6b3f c919 e93d c5a5 abbd
00000390: 6c50 70bd 35b2 0c3f 14f9 0ebe 716a 253f
000003a0: ec50 62be 84c4 24bf b0fa 6f3e 3be3 d83d
000003b0: 3309 233f 4c05 243e 49bc 61bf c20e 0d3d
000003c0: 060c c33d 2b1b c93e 1150 403f ecbc d8bd
000003d0: e10b 8f3d 2d8c d5be b2f1 9d3d 304a cc3e
000003e0: c991 3e3e 6755 07be 3b9c 33bc 975d f7bc
000003f0: 4dcb 2f3e 6271 ae3f 8df3 6b3e 83cc 923c
0.41211078 -0.3632537 -0.3060693 -0.022278879 0.54573077 -0.1484813 0.4842418 0.09564007
-0.32841444 0.10003964 -0.21308349 0.29350954 1.3531733 0.030763293 0.25174415 0.12500317
-0.18088247 0.14958496 0.57347286 -0.18494791 -0.5936825 -0.19556874 0.2733114 0.45843557
-0.09235103 0.32039297 0.3123157 -0.92518985 -0.061568145 -0.64494956 -0.42205328 -0.51254386
-0.43925217 -0.3732899 0.45128283 0.41976297 -0.23778842 0.5090518 0.30027682 -0.39777493
0.23465319 0.33702108 -0.2737699 0.39287966 0.38383546 -0.89942497 0.12393145 -0.127716
-0.53731173 0.36949256 -0.029264798 0.40330583 0.29215157 -0.5167117 -0.19237268 0.4610249
0.15383026 0.25092554 0.07285289 -0.18741666 -0.5918738 -0.31677365 0.21373414 -1.1748155
-0.3984738 0.23317964 -0.182144 0.047639165 -0.26235706 0.21216907 0.0043578376 0.28869072
0.30506226 0.29504383 -0.050158046 -0.12984283 -0.0718827 0.13422509 -0.32192382 -0.23914303
0.39809275 0.1464532 -0.13677481 -0.04388648 -0.42713088 0.25389725 0.14056969 0.27685773
-0.6384548 0.79825586 -0.78379 0.25789142 0.1381276 -0.8850973 -0.40902525 0.029258287
-0.5289142 -0.817649 0.34866565 0.1532513 0.08185338 -0.111871995 0.44219154 -0.40795934
-0.20116234 0.09154349 -0.1204362 0.7346789 -0.9042363 -0.4232283 0.31058237 0.12918186
0.1919441 -0.17008948 -0.42611387 0.10896199 0.09609602 0.104444794 -0.14011158 -0.48250228
0.33871928 0.37471715 -1.2902797 -0.7434688 -0.2837619 -0.603573 0.24811442 0.10648549
0.012405086 -0.08081007 -0.12050344 0.06595056 -0.18457906 0.056420244 -0.6705922 -0.07590329
0.44587934 -0.27467158 -0.14565915 0.45169926 -0.29511797 0.021324186 0.44928923 -0.3971767
-0.098774806 0.07772805 0.05533848 0.13814652 -0.10999897 -0.2486488 -0.036186013 -0.16601992
-0.21451253 -0.14833243 -0.11077685 0.15921023 -0.50282174 0.71940595 -0.15352313 0.2278444
0.706293 -0.615827 -0.79823387 0.120861486 -0.11000079 -0.32297435 -0.11618143 -1.4277877
-0.018870397 -0.8443491 0.86750245 -0.1894962 -0.6775003 0.1760417 -0.7248092 -0.10025786
-0.18138476 -0.4629796 -0.9526389 -0.6932296 -0.30263382 0.4006243 0.14276494 0.37435958
-0.060240068 -0.07074201 -0.028189085 0.057092983 0.05608057 0.9605183 -1.4171463 -0.0920451
0.25666776 0.058354456 -0.61866856 -0.47051385 -0.066154264 -0.07623404 0.5025548 -0.070626415
-0.45100588 -0.0045319693 -0.104759626 -0.11031067 -0.6350023 0.10591216 -0.26859477 0.26754367
-0.25169364 0.10747244 -0.16909589 0.19971338 0.59383607 0.032050274 -0.5376661 -0.14734387
-0.31708738 -0.072479494 1.2551137 0.8642269 -0.6474125 0.63862926 0.51659477 0.10187709
0.5112664 0.92155325 0.11381871 -0.083812274 -0.058670446 0.5495942 -0.13962203 0.6461554
-0.22101182 -0.6436236 0.23435473 0.10590216 0.6368591 0.16017646 -0.88177925 0.034437902
0.09523778 0.3927854 0.7512217 -0.10582909 0.069846876 -0.41708508 0.07712115 0.3990035
0.186103 -0.13216172 -0.010962541 -0.030195994 0.17167397 1.3628352 0.23042126 0.017919784

fc.bias f4 [12]
00000000: a724 d6bc f2f5 0e3d 23da 0dbd 308c 51be
00000010: cb0e f83d fb79 ef3d a0b2 f83d 843e 08be
00000020: 0cd1 9f3d 0886 27bd 46f6 803e da70 933e
-0.026140524 0.03490252 -0.03463186 -0.20463634 0.121121965 0.11693188 0.12143445 -0.13305098
0.078035444 -0.040899307 0.25187892 0.28797036
