gesture_data/gesture_model11.pt (torch, 215933 bytes, 8 tensors)

conv1.weight f4 [64, 99, 3]
00000000: 40c7 283d f0ce 3e3b df8c fa3c 9e39 df3d
00000010: 5360 9d3d ffad 983d 2da9 133e 5c5c bd3d
00000020: 5088 81bc 0090 133e 6979 413d 6bcd bc39
00000030: a096 1f3e 2f9b 813d 1fe2 143d 18e0 b43d
00000040: 1475 b43c f969 38bd ddf5 1a3e ff08 b4bd
00000050: 695d 233d 74fe 2d3e 8d92 183d f941 43bd
00000060: a951 123e d5a1 073c 172c ec3c 9e37 df3d
00000070: 4fbd da3d 08c1 33bc bef2 543e f32f 3bbd
00000080: d87d cf3c e1d3 3e3e cf42 933c 3d87 a1bd
00000090: 32f4 583e e6fd 4ebd 785e 533d dbb0 1c3e
000000a0: a6ba c83c 243a 17be 08ea 093e 8a4a 043d
000000b0: 2b1d 5e3d e2cb 0a3e eb4a 0e3d 8ca1 7fbc
000000c0: 27fd 7a3e 905c 03bc f97d d73c 6695 193e
000000d0: 95cf 5f3c b414 1ebe 69dd 453e 937b 06bd
000000e0: c27e 883c dded 3a3e e0c8 ac3c 297a 2abd
000000f0: 9bbf 7a3e 44c0 f43b 7e86 273d 9d9e 533e
00000100: 8ae2 d33d d154 053d e30b 123e d940 0c3d
00000110: 9147 dd3c 71dc ee3d aa58 883d 0e17 2ebd
00000120: 5e92 0d3e 5fcf 943c 6f72 543c 3cc9 093e
00000130: 6264 7f3d abb6 f13c 3e75 063e 99aa 72bb
00000140: a8ba 123c f753 373e 8d3b 883b d546 c7bd
00000150: decd 3c3e 493c 6a3d a944 65bb 7096 d43d
00000160: 954b b43d cf14 82bd 8e9f 633e ee22 983c
00000170: c102 95bd 660b e73d 4255 763d e76d 02bc
00000180: 4028 553e eda9 e73c ca7b c0bc 352b 2a3e
00000190: eb94 cd3d 78a2 233d 172e 5f3e a44b 973c
000001a0: 25d0 4b3c 2012 eb3d 566d 043d 5c76 393c
000001b0: eccb 2c3e 0211 743d cf8a 163d 31df 383e
000001c0: 8166 7c3d e7c9 923d 12c5 173e 9f2d c73d
000001d0: f884 a6bd 27da 333e b687 cb3d 1172 13bd
000001e0: a94d 413e a1ce fbbb 7df0 0e3c 91ec 353e
000001f0: c357 133e 8f8b 36bd 83b4 253e 974e b93d
00000200: 948e 003c 296b 603e fd27 db3d c4b4 97bc
00000210: 9bed 3a3e c70d 643d 1dce 5abd 83de 523e
00000220: 8c23 b13d b286 37bd 7c08 493e 97d6 823c
00000230: 743d 86bd 7d61 363e db23 953c 9c2a 473b
00000240: 74bd 053e 8035 5fbc 5986 cbbc 14cf 073e
00000250: 057a 083e a654 493d 8a55 1b3e bb77 793d
00000260: b94d 76ba cec0 3c3e 8495 e93d 08c9 96bd
00000270: 63ee 6d3e b4c3 2f3d ba88 cbba 7a43 e93d
00000280: 539f cf3d b243 3f3d d8ed fa3d 29c0 093e
00000290: 88fa 33bc d813 2f3e d85a e63d 6730 823c
000002a0: 2133 093e f32a d33d 791b 45bc a1ba 613e
000002b0: 4719 263d 5fa2 a8bc 02f3 273e f092 8b3d
000002c0: 9c03 d9bd ed7e 083e 4b6c fb3c a962 a4bb
000002d0: 2c35 043e 2b14 bb3d 104a 65bd c028 283e
000002e0: 1dbd 543d f8f4 0fbd 4c96 243e cbef f63d
000002f0: 6eb5 21bc 1db4 443e 4c26 ac3d 59b1 a9bd
00000300: 6e42 343e 6bc9 d73c b390 85bd 4c29 013e
00000310: 3fdb 2c3d 4cf3 463d b689 ef3d 989f 0a3e
00000320: 3d99 aabc d321 413e 0cd1 ab3d 7b3e 96bd
00000330: 5a1e 163e 7a5d b33d 5fcd a5bc be63 373e
00000340: 0237 013e 2870 523d 8bfb eb3d f927 de3d
00000350: e318 90bc a709 5e3e 2f27 543d b71c 583c
00000360: 9a4e 083e aa1b 98bc 1c3d 49bd 7a90 683e
00000370: b3ff e63d 8b13 7c3d c3e9 163e 63b4 c73d
00000380: 9d6a 9cbd 5d6b 303e beb5 cd3d 57fb babd
00000390: 4aad 5a3e b1ac d6bc 48ba 5fbc 5758 223e
000003a0: 8249 773d 71c9 393d 388e 3e3e 36b3 a93d
000003b0: 8657 0ebd 5363 fa3d 7a9d 973d 449c eebb
000003c0: 5d8c 373e c874 713d 85e5 70bd 8333 1a3e
000003d0: 3baf e63d b0d9 a03d b4bc 293e 30df 773d
000003e0: fa4d 55bc 9ba3 493e 21ea 243d e6e3 19bd
000003f0: 7ce9 223e 33ad 0e3e 27a4 edbc 5a8f dc3d
0.041205645 0.0029115044 0.03058475 0.108996615 0.07684388 0.07455062 0.14420004 0.09246132
-0.01581207 0.144104 0.047234926 0.00036011203 0.15584803 0.06328427 0.03634846 0.08831805
0.022028483 -0.04502294 0.15132852 -0.08790778 0.039884005 0.16991597 0.037249137 -0.04767034
0.14288963 0.00827833 0.028829617 0.1089928 0.10680639 -0.010971315 0.20795724 -0.045700025
0.025328562 0.18635513 0.017976193 -0.07887123 0.21186903 -0.050535105 0.051603764 0.1530184
0.024503063 -0.14768273 0.13468182 0.03229765 0.054227035 0.13554338 0.034739416 -0.015602481
0.24510632 -0.008017674 0.026305186 0.14998397 0.013660331 -0.15437585 0.19322743 -0.032832693
0.016662005 0.182548 0.021091878 -0.041620407 0.24487154 0.007469209 0.040899746 0.20665975
0.10345943 0.03255159 0.14262347 0.03424153 0.027011665 0.116631396 0.06657536 -0.042502455
0.13825366 0.018165288 0.012966736 0.13455671 0.062351592 0.029506048 0.13130662 -0.0037027954
0.008955635 0.17903124 0.0041574896 -0.09730307 0.18437907 0.0571864 -0.0034983552 0.10380256
0.08803479 -0.06351625 0.22228834 0.018571343 -0.07275916 0.11281471 0.060139902 -0.007960773
0.20816135 0.02827927 -0.023496527 0.16618045 0.100381695 0.039949864 0.21794926 0.018468685
0.012439762 0.114780664 0.032330833 0.011319723 0.16874665 0.059586532 0.036753472 0.18053891
0.061621193 0.07167416 0.1482127 0.097254984 -0.081308305 0.17563687 0.09937994 -0.035997454
0.18877281 -0.007684544 0.008724329 0.17766024 0.14388947 -0.044566687 0.16182141 0.09048193
0.007846493 0.21915878 0.107009865 -0.018518813 0.18254702 0.0556772 -0.05341922 0.20592694
0.08649358 -0.04480619 0.19632143 0.015971465 -0.0655469 0.17810626 0.018205574 0.0030390387
0.13060552 -0.013623595 -0.024844335 0.13262588 0.13327797 0.049152993 0.1516935 0.0609052
-0.0009395737 0.18432924 0.11405471 -0.073625624 0.23235469 0.042911246 -0.0015528419 0.11389823
0.101378106 0.04669542 0.12252396 0.1345221 -0.010985024 0.17097414 0.11247796 0.01589222
0.1339841 0.10310926 -0.012030476 0.2204385 0.04055145 -0.020585237 0.16401294 0.068151355
-0.105963916 0.13329668 0.030691287 -0.005016644 0.12910908 0.09134706 -0.055978835 0.16421795
0.051938165 -0.03514573 0.16072959 0.12057456 -0.009869916 0.19209333 0.08405742 -0.082857795
0.17603466 0.02634116 -0.0652174 0.1261341 0.042201277 0.04857187 0.11696188 0.13537443
-0.020825023 0.18860559 0.08389482 -0.07336136 0.14660016 0.087580636 -0.02023953 0.17909142
0.1261864 0.05137649 0.115225874 0.10847468 -0.017589992 0.2168337 0.05179518 0.01319044
0.13311234 -0.018567879 -0.049130544 0.22711363 0.112792395 0.061542075 0.1473761 0.09751203
-0.07637522 0.17228456 0.1004443 -0.091299705 0.21355167 -0.026205393 -0.013655253 0.15854011
0.060372837 0.045358125 0.1860894 0.08286135 -0.034751438 0.12225976 0.07403083 -0.007281812
0.17924638 0.058949262 -0.058812637 0.15058713 0.11263891 0.078540206 0.16575891 0.060515583
-0.013019079 0.19691317 0.040262345 -0.037570857 0.1590938 0.13933258 -0.029008938 0.1076953

conv1.bias f4 [64]
00000000: ff6f 853d 1bc7 94bc 9cae d1bd 57ff 713d
00000010: 4309 083e 27da 993d 4246 67bb a323 073c
00000020: a1df fbbc bafd 37bc 0d59 75be 34d1 c33d
00000030: 5d7a 7dbc 66ee c7bd 4653 b63c e7f7 f9bd
00000040: 13c2 1a3e 84cc 70bd 394f 1fbe a734 e8bd
00000050: de70 67bd 3d03 8b3b 5e83 a8bc d849 1c3e
00000060: 5612 4cbe b26a 21bd 8889 36bd 6dca f5bd
00000070: 50c7 d13c 20ae 5bbc 16d7 723c e803 21be
00000080: 4f3d 52bc 104b 08be d152 0a3d 2f6a 9c3d
00000090: 695d 96bd c07f b8bd abd6 03bd 9cbc 5fbe
000000a0: 3f43 b13d 77e7 4f3d ad9f b03d 2ecd 863d
000000b0: d7f4 cebd 0ecb 07be 2eaa f6bd 541b 2c3e
000000c0: 4bd6 5dbd e084 2d3d 814e 79bd 2bf7 fa3d
000000d0: 0262 0c3e 4222 df3d 52ac b93c 4ff4 233e
000000e0: 1f6c 4b3c 6e72 fe3c a7b9 953d c266 fdbc
000000f0: a71b 2d3d 5b30 57bd 2ed6 92bd 8cfb d43c
0.06515502 -0.018161347 -0.10238382 0.0590814 0.13284783 0.075123124 -0.003528968 0.008248243
-0.030746283 -0.011229927 -0.23959751 0.09561387 -0.015471068 -0.09762268 0.022256505 -0.12205487
0.15113096 -0.05878879 -0.15557565 -0.11338168 -0.056504123 0.0042423294 -0.020570453 0.15262544
-0.1992887 -0.039408393 -0.044564754 -0.120015 0.025607735 -0.013408214 0.014821788 -0.15724146
-0.012832 -0.13309884 0.033770386 0.076374404 -0.07342035 -0.090087414 -0.032187145 -0.21849293
0.08655404 0.05075785 0.08624206 0.06582104 -0.10105293 -0.13261053 -0.12044178 0.168073
-0.054159444 0.042363048 -0.060865883 0.12254175 0.13709262 0.10895206 0.022665177 0.16011165
0.012415915 0.031060424 0.07310801 -0.030932788 0.0422627 -0.05253635 -0.07169758 0.025998853

lstm.weight_ih_l0 f4 [256, 64]
00000000: fc57 dabd dcd6 a83d 7557 a4bd 765e 3bbe
00000010: 17b2 863e e706 093e a564 82bc 877e d63b
00000020: c782 0a3e 0ea5 d53d f98d fabc 95da 043e
00000030: df2f d93d 9dba 50be e74e 2f3d e8d7 61be
00000040: 3589 f43c 6ab0 783b f85f 04be 8855 0cbe
00000050: a510 b03d ba1a 15bd f250 223b f22c f03d
00000060: 96db bdbd 54a8 b63d c35f ef3d 1d57 47be
00000070: 0231 95bd cf2c 63be 0abe b93c c21e 433c
00000080: 56f8 3fbb fbe8 05bd d647 e43d 4700 8f3d
00000090: 655d 663e 21d2 d6bd 915f b9bb 3293 34bc
000000a0: 71cc 3dbe 31fa 073d 702d cdbc bdf0 01bd
000000b0: 3b46 023e 84fa 0fbe 6698 e0be 9d57 503e
000000c0: d880 433e 6f51 843d b044 07bd 7278 12be
000000d0: a196 cebd 0459 9fbb f990 813e 98c5 d93c
000000e0: b2e2 303e af5e 0dbe 233e 7a3d 52db 173d
000000f0: 5ffa a33c 2d79 cabd e0d7 e93d d755 873d
00000100: fa48 44bd 2aaa debd 4875 8ebe fa16 06bd
00000110: f686 23bd 4993 413e 1cac 82bd a4b7 4abd
00000120: 7735 713d c825 963d 8396 133d 1887 7fbe
00000130: 742d b13d 3b4a c1be 0eea 5ebe 0523 abbe
00000140: 85a6 49bd 294b f2bc 73a5 d3bd a792 763d
00000150: 75e3 30be 3511 c43c 38ca bfbd 60c1 913b
00000160: 9143 dd3c ba0f 52be c6c2 3e3e ecc5 4dbd
00000170: 1bbd 8c3e 5742 62be 8854 9b3c cee8 e93d
00000180: 8300 9ebc 2e2b 0fbe f95e b4bd d95a 29bd
00000190: df6e e1be 9d3b 27be 5f72 2e3e d825 6c3e
000001a0: 8d83 963d 6cd5 8bbd 189a 99bc 8adb 65be
000001b0: f416 f8bb da25 bfbd c566 c4bc 49d5 793e
000001c0: 0d67 0dbe 3bcf b9bd 8775 313d ed07 3abe
000001d0: 35f7 6d3c 9dd0 0bbe 82be 3ebd ca92 313c
000001e0: ec3c 223e 9c7c 0c3e f59b c43d d623 6e3d
000001f0: adb6 0d3d d056 eb3d 43a8 abbc a1fa 753d
00000200: 96be 54bd 5029 f7bd 06ad 993d 4744 b53d
00000210: a9a6 263c b9c7 2e3d b9d4 70bd d886 db3c
00000220: 27d4 003e 825e 23bd 7c35 4dbd fe29 afbd
00000230: 1eb4 8f3c 8a57 8a3d 5b7c 033d 7a97 843d
00000240: f982 83bd 074d f3bc eb40 3a3a 2125 c33d
00000250: 2303 cc3c 771c 0fbd 10ae cabc 75a4 033e
00000260: 9592 963d de19 d83c 82ca 05bd 7271 5abc
00000270: d09a de3d 87fc f13c a5cc b1bd 116a 04bd
00000280: 8358 0c3e fe93 d23c adfd 243d ca96 c7bb
00000290: e9e4 c7bd 821d 75bc a8e9 453c 6b22 df3d
000002a0: c23e aabb 39ba 6dbd 9c2c 4c3c 4ff0 cfbd
000002b0: 8a13 ae3d 2779 b53d 339e 33bc b71d ad3b
000002c0: 6622 a43d fff5 c23d fb08 d6bc b33d a03d
000002d0: 4212 8c3d e8cb f13d 463c 5e3d deb3 7ebd
000002e0: dd58 bfbd dfa7 973d 0d71 853d e4d9 093e
000002f0: 2858 303d c506 b73d 32dd e13d 37ca 46bd
00000300: 8bf2 98bd 1f0c a3bd e4bf 263e c085 f03d
00000310: 5b8e 7c3b 6b97 9a3d 6f75 f93c 74c9 483d
00000320: 2c6b f4bc b639 dfbc dc6f 0cbe 4c63 a1bd
00000330: 642f a2bd a391 4c3d c15a 0b3d bc9c 383d
00000340: b6b9 633d 3a87 96bd 735f 9fbc 61fc ce3d
00000350: ce87 d13d ca12 053e 0155 883d 66ca c2bd
00000360: dd51 9bbd 0f93 e23d c72d b43d 61f0 01bd
00000370: 9d11 ee3d cf26 23bd c87a 95bd cbc2 58bd
00000380: 5470 93bd f2e5 17be 084a 193d 2128 373d
00000390: a549 fd3b 20aa 1c3e cc0b 963d c6f6 c2bc
000003a0: 2192 ad3c d9ec d1bd 5353 d7bc 8d55 c33d
000003b0: 7264 4fbd 1d64 0b3e 3612 bfbd 2e7b 0c3e
000003c0: 2a1b 8bbd a8fe b73d 2a94 033d 8bcf e43d
000003d0: 2be2 03bc 9e91 033e 5501 56bd 332e 98bd
000003e0: 0e85 573e 89ba 043e 0253 f0bd 3075 7c3d
000003f0: e1c5 eb3d 0b53 b53d 5ed9 0bbe a20e e13d
-0.10661313 0.08244106 -0.080244936 -0.18297753 0.26307747 0.1338154 -0.015917132 0.006545845
0.1352645 0.10431872 -0.030585276 0.12974007 0.10604834 -0.20383687 0.042799857 -0.22055018
0.029850582 0.0037946948 -0.12927234 -0.13704503 0.08596925 -0.03640244 0.0024767485 0.11727323
-0.09270398 0.08918825 0.11688187 -0.19466825 -0.07284738 -0.22185062 0.022673625 0.011909189
-0.0029292307 -0.03269289 0.11146514 0.06982475 0.22496565 -0.10489298 -0.0056571444 -0.011021422
-0.1853502 0.033197585 -0.02504608 -0.031723727 0.12722103 -0.14060408 -0.4386627 0.20345922
0.19092119 0.06460845 -0.03302449 -0.14303759 -0.10087324 -0.0048629064 0.25305918 0.026583478
0.17273977 -0.1380565 0.061094414 0.037074395 0.020016847 -0.09886394 0.11418128 0.066081695
-0.04792116 -0.108723 -0.27823853 -0.032736756 -0.03992363 0.18903841 -0.063804835 -0.04949154
0.05888888 0.07331425 0.03603221 -0.24953878 0.086512476 -0.37751946 -0.21768972 -0.33425155
-0.04923107 -0.029576855 -0.10334291 0.060198452 -0.17274268 0.023933986 -0.09364742 0.004448101
0.027009757 -0.20513812 0.18628988 -0.05023758 0.27488026 -0.22095619 0.018961206 0.11421357
-0.019287353 -0.13981315 -0.08807177 -0.041346405 -0.440299 -0.16331334 0.17035817 0.23061311
0.0734931 -0.06827816 -0.018750235 -0.22447029 -0.0075710956 -0.093333915 -0.023974786 0.24397768
-0.13808842 -0.09072729 0.043324973 -0.18167086 0.014524271 -0.13653798 -0.0465684 0.01083822
0.15843552 0.1371941 0.09600059 0.058139645 0.03459804 0.114911675 -0.020954257 0.06005347
-0.05193957 -0.120684266 0.07503705 0.088509135 0.010171571 0.04267094 -0.058796618 0.026797697
0.1258093 -0.03988505 -0.050099835 -0.08552931 0.017541941 0.06754978 0.032101016 0.06474204
-0.064214654 -0.029699815 0.00071050104 0.09528566 0.02490384 -0.034939256 -0.024741203 0.12855704
0.07352177 0.026379522 -0.03266383 -0.0133327115 0.10869372 0.02953936 -0.08681611 -0.032327715
0.1370564 0.025705334 0.040280987 -0.0060909735 -0.09760458 -0.0149606485 0.012079634 0.108952366
-0.0051954696 -0.058038924 0.012461808 -0.10153257 0.084998205 0.088609986 -0.010963011 0.0052830833
0.080143735 0.09519576 -0.02612733 0.07824268 0.0683942 0.1180647 0.0542567 -0.062183253
-0.09343121 0.07405066 0.06515703 0.13462025 0.043052822 0.08936838 0.11028518 -0.04853269
-0.074681364 -0.07961296 0.16284138 0.11744261 0.0038537 0.07548412 0.030451505 0.049020246
-0.02983626 -0.027249198 -0.13714546 -0.078802675 -0.07919195 0.049943577 0.034022097 0.04507135
0.05559703 -0.07350011 -0.019454693 0.10106731 0.10230981 0.12995449 0.06656838 -0.09511261
-0.075839736 0.110632055 0.08797794 -0.031723384 0.11624453 -0.039831933 -0.07298809 -0.052920144
-0.07199159 -0.14833811 0.037424117 0.044716004 0.0077297264 0.15299273 0.07326469 -0.023799311
0.021187844 -0.10250253 -0.02628485 0.09537802 -0.0506329 0.13612409 -0.09329645 0.13718864
-0.067922905 0.08984119 0.032123722 0.11172398 -0.008049528 0.12848517 -0.052247364 -0.07430687
0.2104685 0.12961783 -0.117345825 0.061635196 0.11512352 0.0885373 -0.13657138 0.10989119

lstm.weight_hh_l0 f4 [256, 64]
00000000: d093 943c e032 38bd 4181 7b3d 76e1 123e
00000010: f725 3d3b 074e d73d 698c fabb 40fc 04be
00000020: 7de2 283c 2e2c a5bd 26df 0bbe dce0 4e3e
00000030: a72d 97bd 49fd 283d 1a0a 0ebd 25ba 31be
00000040: 1603 a03d 2150 4c3c a3bf 26bd 8ca5 dc3d
00000050: bc44 32bc 3b3f 193e ff33 393c d978 b8bd
00000060: b0d7 a33d 1d18 52be c965 8fbe d1ec 8bbd
00000070: 1c99 c6bd 1deb a23d 31b8 233d ecc0 303e
00000080: 24f6 1f3d 2397 febd fcbc d4bd 3c2b f73d
00000090: 552e b43d a194 223c 393c dbbb b688 8d3d
000000a0: c052 e13c 1caf 413d a802 3abd 959a c63c
000000b0: 488e 4c3d c2d9 f93c 353f 043c 6903 6cbe
000000c0: a702 36be 79c7 4ebe 56f3 aa3d 2347 3d3e
000000d0: 8bbc 66be fe83 863d 608c 893d 163d c23c
000000e0: 6368 50be 437e 15bd d329 80bc 44ea ffbd
000000f0: 4956 20bd 8d61 993d 325d 8cbc ef20 4a3d
00000100: 89c2 e7bb 45a7 7e3d 9745 d63d a1d9 3bbb
00000110: 8b42 12be c0d2 193e df9b 773b 043f 023d
00000120: bf96 1bbc fa32 a53b 2a20 c4bd 7612 9fbc
00000130: 18d4 843e b3d3 0ebd 1848 ad3d d5ad 513d
00000140: 889c dbbb 8f45 c53d 133f 093e 3504 383d
00000150: 2e48 acbb 70af 67bd 9590 8d3c 5397 963d
00000160: 655c 6a3e 859f a1bc d84a cebc 4a3c 63bc
00000170: aa1c c83d 5594 b13c ffcb b33d c8fb 8dbe
00000180: 9fc3 343e c87e b1bc d2bf b53d d7e5 e5bd
00000190: fe02 bc3d a7e9 8b3c 70bc 9c3d 498b b63d
000001a0: 4839 38bd c1b6 e8bd ff51 35bd aade c03d
000001b0: 95a9 4f3e 1de6 90bc 3c96 94bc 1c9b a8bd
000001c0: 0a51 c83c 2c26 aabd 753f f13d 64d5 2cbd
000001d0: 0396 0b3c 12c6 1abc fb4c 083c 1c9b 823d
000001e0: e103 e2bd 8029 f73c 9997 d7bd ea7e 8ebe
000001f0: a65f 123e dfc4 69bd b19a 463c 5c06 ff3d
00000200: 526c 18bd 80fa 99bd c4ce 7a3d f0eb b53d
00000210: 6c72 de3d 4e8d 103c 85ac 8a3d 0fdc e9bd
00000220: 54a4 cd3d 8847 f4b9 0f8d c3bc 1a5b 103e
00000230: 0a06 153e 95c8 e6bd c7ce a53d c61d 1bbd
00000240: 861d a93d 9379 31be ad04 00be 7e6c 0d3e
00000250: d60c f03d 560a 903d d717 183c 4b45 a7bc
00000260: 170c 793c 4e51 a2bd 9e2a a63d d8d3 043d
00000270: 924c eebd fcfd 233d 0830 6b3b f16e a6bd
00000280: 3e06 5cbd 63e2 f8bd 5597 64bc 6537 d43c
00000290: 4f67 10bd 6796 143e b8b5 aabb 4b30 77bd
000002a0: 0d06 8d3d 011f ca3d 3205 ccbd 418d dbbd
000002b0: cffa 8e3d 906b 0abe a6a7 60bb 3014 babc
000002c0: 4451 ec3c c259 7ebd baa1 8a3d 7290 813d
000002d0: aee6 babc c326 46bc 63e4 06be 777e 363d
000002e0: 569a 733d 86c5 c53d 3c70 dc3b 549f efbd
000002f0: 4b71 353d 5bf9 46bc 2335 e73d 900a 513c
00000300: e164 853d 01a4 aa3d 0fa2 c83d 1c7b 963c
00000310: 2c1c c23d 2566 a5bd 03bc d33d ce87 4b3d
00000320: 658c dc3c 9dce db3c cd9d 49bc ecda 8b3d
00000330: 42a8 cb3d df09 96bb bfb5 40bd b021 20be
00000340: 4c92 3b3d eee8 55bd f807 a0bd c33f 9fbd
00000350: d50e fd3c 3b13 b83d fd9d 083d a522 c03c
00000360: 2966 f53c 5948 7c3c 0bef e63d 065d b7bd
00000370: 9c36 50be ef7d cabd d435 053e 979b d93d
00000380: 1bb4 f13d 6536 3d3d b7e0 d23d f34a 8f3d
00000390: 50e5 863c 459d 123c e7a7 c4bc 51a0 b03d
000003a0: 9b21 163d 9f29 93bc d83e 283e e077 a83d
000003b0: 954a e6bd d472 163d 0d97 fc3d 18bf 073d
000003c0: afaa e9bd f0c1 703d 5ddb 243c 34bc 3cbd
000003d0: 6824 86bc a0b2 6c3d 12d7 bbbd c438 873d
000003e0: 60fd 0ebd b17b f5bd a88d 46bb 2afc d8bd
000003f0: fe81 a03d f850 f7bc 9c56 fc3c 522e 12bd
0.018136889 -0.044970393 0.061402563 0.14343819 0.002886174 0.105129294 -0.0076461327 -0.1298685
0.010307905 -0.08065067 -0.13659343 0.20202965 -0.07381754 0.041257177 -0.034677602 -0.17356165
0.078130886 0.012470276 -0.040710103 0.10773763 -0.010880645 0.14965527 0.011303901 -0.09007425
0.080001235 -0.20517011 -0.28007343 -0.068322785 -0.09697172 0.079550005 0.03997058 0.17261094
0.039053097 -0.12431171 -0.103876084 0.12068793 0.087979 0.009923131 -0.0066905287 0.06910841
0.027505279 0.047286138 -0.04541269 0.024243632 0.049940377 0.030499343 0.00807171 -0.23048176
-0.1777445 -0.2019328 0.08347194 0.18484168 -0.22532861 0.06568144 0.067162275 0.023710769
-0.2035232 -0.036497366 -0.015644943 -0.124958545 -0.039144788 0.074893095 -0.017134283 0.049347814
-0.007072751 0.06217124 0.10462492 -0.0028663652 -0.14283197 0.15021801 0.0037782115 0.031798378
-0.00949639 0.0050414773 -0.09576447 -0.019417983 0.25943065 -0.03486986 0.084610164 0.05119117
-0.0067020096 0.09632408 0.13402967 0.044925887 -0.005257628 -0.056563795 0.017280856 0.073530816
0.22886808 -0.019729385 -0.025182173 -0.0138693545 0.09771092 0.021677176 0.087791435 -0.27731156
0.17652749 -0.0216669 0.088744774 -0.11225479 0.09180258 0.017079188 0.07653129 0.08913285
-0.044976503 -0.113629825 -0.04426765 0.0941747 0.20279534 -0.017687852 -0.018138044 -0.0823271
0.024452705 -0.08308062 0.117796816 -0.042195693 0.008519652 -0.009446638 0.008319135 0.06377241
-0.11035896 0.030171156 -0.10526962 -0.27831203 0.142943 -0.057072517 0.012121842 0.12452385
-0.037212677 -0.07518482 0.061232343 0.08882892 0.10861668 0.008822752 0.06771187 -0.11418926
0.10041109 -0.00046592602 -0.023870973 0.14097252 0.14553085 -0.11268727 0.0809608 -0.03787019
0.08257584 -0.17331533 -0.12501784 0.13810918 0.11721198 0.070332214 0.009283028 -0.020418784
0.015200636 -0.07925664 0.08113597 0.032428592 -0.116356984 0.04003714 0.0035886783 -0.08126629
-0.05371689 -0.12152555 -0.013952096 0.02590532 -0.035254773 0.14510499 -0.005209651 -0.06034879
0.0688592 0.09869195 -0.099619284 -0.107203014 0.06981432 -0.13517594 -0.0034279614 -0.022714704
0.028847344 -0.06209732 0.06769128 0.06326379 -0.022815075 -0.012094202 -0.1317306 0.0445542
0.059473358 0.09656815 0.0067272466 -0.11700311 0.044297498 -0.012144412 0.11289432 0.012758866
0.06513382 0.083320625 0.09796535 0.01836925 0.094780296 -0.08076123 0.10338595 0.04969006
0.026922414 0.02683192 -0.012305689 0.068288654 0.09944202 -0.0045788134 -0.047048327 -0.15637851
0.045793816 -0.052224092 -0.0781402 -0.077758335 0.030890862 0.08988043 0.033353794 0.02345402
0.02995594 0.015398108 0.112760626 -0.0895329 -0.20333332 -0.09887301 0.13008815 0.106253795
0.118019305 0.046194453 0.10296767 0.06996717 0.016466767 0.008948629 -0.024005843 0.08624328
0.036653142 -0.017964182 0.16430223 0.08225989 -0.11244694 0.036730602 0.12333498 0.033141226
-0.114095084 0.058778703 0.010062066 -0.046077922 -0.016374782 0.057787538 -0.09171881 0.06602624
-0.034909606 -0.11986483 -0.0030296836 -0.105949715 0.07837294 -0.030189976 0.030803017 -0.035688706

lstm.bias_ih_l0 f4 [256]
00000000: 2a29 233d b5e5 ab3d 29cd dc3d d0c4 b33d
00000010: cf75 9dbc fcce 013e 400f 323e e018 2bbc
00000020: ca28 723e 936d 053e e368 cebd 50ae 0b3e
00000030: c3ee f13d 5a1f cebc 0ca2 0b3d 0513 9f3d
00000040: 1375 f83d d5ae ad3c c717 c93d 128f 733d
00000050: 568a d03d 3704 bb3d f61f b33c fac0 e7bc
00000060: fbc2 e23d 5c05 57be 9f09 153e 0842 40bd
00000070: 20c6 583c ac9c eb3d 963c b83d fd17 913d
00000080: fa85 f0bd ba03 163e 4c00 fa3c 0525 b6bd
00000090: 56b5 8dbd 8077 c7bc 6983 433d 45fc acbd
000000a0: 9421 9c3d e3b4 35bd 780a c73c 164a fcbc
000000b0: d428 853e af2f 1f3e 0e92 bfbd bcda 013e
000000c0: eb4e 3d3c 686f a93d 37d8 dabb 1214 403d
000000d0: 5962 b23c b308 89bc f0f3 ad3d 5c6d 2f3e
000000e0: cc75 013e 6660 043e 9809 983d 7c7f 233d
000000f0: df5e 8b3d 7d59 513d 1d36 b73c f46d 243d
00000100: d4d1 093e 0305 85bd fc83 c53d 7896 833d
00000110: 7ad8 09bd 2ebd afbd c833 543e ff8d be3d
00000120: cdfa 323e 3d78 3ebd 7df9 c3bc f734 f63c
00000130: b6a0 203e cf8e 043e 28cd 29bd 4209 8a3d
00000140: 9486 88bd b7e3 4b3d aa11 31bd 8334 2a3e
00000150: 8b46 edbd 93e2 d53c d190 babd 062e 5bbd
00000160: 8d43 94bd c1ee c7bd bf15 99bc eead 3a3d
00000170: 5c74 0e3e f7a2 1e3e f2cc 4e3d e085 8cbe
00000180: d568 92bd 52b6 78bd 2e05 6d3d 1ecb 0d3e
00000190: 6f9f f6bc 1e8c c3bd aab9 17be 827d 88bc
000001a0: 3158 643d 6c7c 20bd 6c87 de3d 4ece 9cbd
000001b0: 8d35 8ebd bd20 893d b743 86bd d504 433d
000001c0: 6241 0e3e 3db9 dfbd fb5f 6bbd d8ea 753c
000001d0: 5431 76bc 2917 cb3d 0629 ab3c acd7 21bd
000001e0: 92f7 a53d fa42 d7bd adce ac3d 5e75 fabb
000001f0: 9500 193d 125b 01be c582 b3bd b10a 1e3e
00000200: 1e66 e73d e944 80bd 9ce3 bdbd 4030 893d
00000210: f88e 053e e08d 4bbb 2fd7 103e dce0 d0bd
00000220: 4078 68bd 0ca3 eb3d 9fd7 853c c4c3 933c
00000230: dbf3 d2bd 6ecf d03d 7408 4abe a40d 0fbe
00000240: d47d 69bd 551a 6bbd 86cd ee3d df13 0b3e
00000250: 92c3 cabd 1c8c 333e 196a 513d da6b cbbd
00000260: 0809 1fbe 2494 373d 13fe 8bbd 6f01 14bc
00000270: 5d85 e6bd 9143 113e b807 3f3e d290 6439
00000280: 0cfc d83d f1a4 3cba 609f f9bc d1c4 0b3e
00000290: cefe 1a3e d79a a8bb e3ad 813d 1aea 02be
000002a0: db0c 70bd 9f09 96bd 22aa 80bd e38c c8bd
000002b0: c4af b63d 08d0 073d d79b 94bc 8459 cbbc
000002c0: 2ae8 66be 0492 453d 28db af3d f0f2 b5bc
000002d0: 5839 60bc 3ede be3d 78a6 c53d 53eb 8abd
000002e0: c345 21be 5922 013d 7cf7 70bd c9a1 44be
000002f0: 2ca4 603e 32e6 77bd a571 debd 1719 f93d
00000300: 16e7 8d3a 40e9 2abd 4e5e b2bd e71f 583d
00000310: 67ea e9bd 51db 07be 1d98 a33d 7c7e 7abc
00000320: 197f bdbc d902 1bbe e2bc 1e3e 759c 90bc
00000330: 5353 4dbd 1980 c03d 714f d7bd 26c5 1f3e
00000340: 0735 4c3e 097b 14bc 46d8 ab3c 9e05 ee3d
00000350: d4ba 31bc 45c4 f93d f9f1 7abc 45ec 07be
00000360: b906 f2bd 0c8b 7abd 0608 da3d f9be d1bd
00000370: 1bc7 e6bd 2087 b33e 5bf0 813c 2f07 483c
00000380: 7c57 e2bd 6998 363e 5ccd a7bd 9697 073e
00000390: 1046 183d a6bc b9bb f5be 0dbe dc75 23ba
000003a0: c200 72bd 851f f63d 5044 223d b0ff debd
000003b0: ee4e cc3d ae8e 503e 649a 903d 3a42 5c3e
000003c0: af47 603e 67bb 253b 8084 1d3e ca5b 29bd
000003d0: 8048 0c3d 2d63 6d3b de1b 923e 5604 193e
000003e0: 9465 2d3e 2231 2c3e 544e 8dbd 3feb 0f3e
000003f0: d86f 8bbd 4b18 df3d 1ab2 0f3e 109a 8a3e
0.03983418 0.083934225 0.10781319 0.087777734 -0.019221215 0.12676615 0.1738863 -0.010442942
0.23648372 0.1303008 -0.10078599 0.13640714 0.11813118 -0.025161434 0.034090087 0.077672996
0.12131705 0.02120153 0.09818988 0.059462614 0.101826355 0.09131663 0.021865826 -0.02829026
0.11072346 -0.20998138 0.14554451 -0.046937972 0.01323083 0.11504492 0.08995931 0.070846535
-0.11744304 0.14649859 0.03051772 -0.0889378 -0.06919353 -0.024348974 0.047732744 -0.08446554
0.07623592 -0.04436196 0.024296984 -0.030797046 0.26007712 0.15545534 -0.093540296 0.12681097
0.01155446 0.08273202 -0.006678607 0.04689414 0.021775411 -0.01672778 0.08493793 0.17131561
0.12642592 0.12927398 0.07423705 0.0399165 0.068052046 0.051110733 0.02236467 0.040143922
0.1345895 -0.064950965 0.09644315 0.06425184 -0.033653714 -0.08581005 0.20722878 0.09304427
0.17478485 -0.046501387 -0.023922676 0.030054552 0.15686306 0.12945102 -0.041455418 0.06740047
-0.06666294 0.049777713 -0.043229736 0.16621594 -0.11585721 0.026109016 -0.09109653 -0.05351069
-0.07239447 -0.097623356 -0.018687127 0.04557603 0.13911575 0.15491854 0.05048842 -0.2744589
-0.071489014 -0.06072075 0.057866268 0.13847014 -0.03010532 -0.095482096 -0.14816919 -0.01666141
0.05574817 -0.039181158 0.108656734 -0.07656537 -0.06943808 0.066956975 -0.06555884 0.04761203
0.13892129 -0.10924003 -0.05746458 0.015009604 -0.015026409 0.09916527 0.020893585 -0.03951232
0.08103861 -0.10510822 0.08437858 -0.007643386 0.03735407 -0.12632397 -0.08765177 0.15433766
0.11298774 -0.062631436 -0.09271929 0.06698656 0.1304282 -0.0031059906 0.14144586 -0.101991385
-0.056755304 0.11505708 0.016338168 0.018037684 -0.10300418 0.10195814 -0.19729787 -0.13970047
-0.057004765 -0.05739816 0.11660294 0.13581799 -0.09900583 0.17533916 0.051126573 -0.099326804
-0.15530789 0.044819012 -0.0683557 -0.009033545 -0.11255906 0.14185931 0.18655288 0.00021797724
0.10594949 -0.0007196209 -0.030471504 0.13649298 0.15136263 -0.0051454115 0.063319944 -0.12784615
-0.05860601 -0.07326054 -0.0628245 -0.09792497 0.089202434 0.03315738 -0.018140716 -0.024822958
-0.22549501 0.048234954 0.085867226 -0.022210568 -0.013685547 0.09319733 0.09650892 -0.06783166
-0.15749268 0.031526897 -0.05882977 -0.19202341 0.21937627 -0.060522266 -0.1086152 0.12162989
0.0010826315 -0.04172635 -0.087093934 0.0527648 -0.11421662 -0.13267256 0.07987998 -0.015288945
-0.023131894 -0.15137805 0.1550174 -0.01765273 -0.050128292 0.09399433 -0.10513199 0.1560255
0.19942103 -0.009062537 0.02097715 0.11622165 -0.010847766 0.121956386 -0.01531648 -0.13273723
-0.118176885 -0.06116776 0.106460616 -0.10241503 -0.11268445 0.3506403 0.01586168 0.012208744
-0.110518426 0.17831577 -0.08193466 0.13241419 0.03717619 -0.0056682406 -0.13842376 -0.0006235519
-0.059082754 0.120177306 0.03961593 -0.10888612 0.09975992 0.20366928 0.07060698 0.21509638
0.21902345 0.0025288702 0.15382576 -0.041347302 0.03424883 0.0036222443 0.28536886 0.1494306
0.1693328 0.16815618 -0.068997055 0.14054583 -0.06808442 0.108933054 0.14032784 0.27070665

lstm.bias_hh_l0 f4 [256]
00000000: ff7a c33d ead1 323e 6803 793c ed67 b4bd
00000010: 8b0c b63d ebc8 e8bb 51d9 743d 285e c6bd
00000020: 9beb 013e c560 8a3d fbc6 1c3d 7e5b 6c3c
00000030: 4637 293e 56ed 73bd 9202 a53d efeb 5cbd
00000040: e594 0d3e 07cb 34bd 3fad e7bd 0472 4a3d
00000050: d851 a83d dd7b 0d3e ce18 8cbd 8ffd 423d
00000060: ce27 a83c 3ae2 34be 07fc e13d 3955 9b3d
00000070: 27ff 023d 41fe 55bd 4c69 893c 7a74 623d
00000080: 1e96 d1bd f651 0f3e 8efe 3f3e b239 56be
00000090: 22a6 d3bd 1ab8 073d 1b9a 433e 9d78 67bc
000000a0: a5e9 3d3e 281d d13d 6ed3 163e 105c 993c
000000b0: 5ab3 3d3e 4122 d83d feb5 ec3d ae67 853d
000000c0: 6d7b 17bd 3a29 76bc effa fe3d 9d95 ea3d
000000d0: f213 5b3d e9ff 553d 8a2f babd 6940 5e3d
000000e0: bdae 173e 05c0 e0bc b106 203b a3e1 0abe
000000f0: bd63 973c e8d9 96bd fb9f 66bd 0e8a 8bbd
00000100: 4643 a43d a19e 5dbd 6cf1 d5ba b3a5 13bb
00000110: b68a 2f3d 7200 0b3e 8af4 0f3e cf0e 693d
00000120: 4b6c 47bd 459e 313d 102d 8f3d 8fa7 31bd
00000130: 8d06 e13d 102a 16bc decd 3f3d c56d ed3d
00000140: a0a7 1bbd 714f 66bc cede eebd 6787 633d
00000150: bdb0 a53d 8bb1 febc 857a 8d3d 1828 333e
00000160: 339e e7bd 0e1e 16be 1492 b73d 3502 fcbc
00000170: 5f2f bfbd 33e2 cf3b f1ff 53bd a83c 0fbe
00000180: 1c3e b83d 5ddd c6bd 7e5a 983d f840 033e
00000190: 257b d7bd 79b5 1fbe 0ea9 943d d7d4 e0bc
000001a0: cad2 873d 0911 c33d 3bbb ed3c 2644 b83c
000001b0: e5b9 b4bb 4d9a 8c3d 3a11 5abd a661 613c
000001c0: 8394 f93d 5ff4 c0bd 7f14 733d 2d86 59bd
000001d0: e2a2 ba3d 4730 df3d a777 743d b731 73be
000001e0: 02b1 363e e43e 9d3d a083 18bd 2820 913b
000001f0: 6c91 93bd 6e13 a2bc ba0c 70bd 7da4 0f3e
00000200: 8dd0 05bd 24b0 08bd dd05 013e 1331 e33d
00000210: 1646 6fbc 74fb 51bc 1095 103e ac1e a83d
00000220: d108 bb3d 1639 a53d 0234 e03c bd80 ef3d
00000230: 5ff8 b1bd 4cf4 173d bed3 8fbc 8230 bcbd
00000240: a564 0ebe c692 babd 3e1c 9dbd 2f8b 62bd
00000250: d22c b4bc 8c44 693d 291f 8a3d bdc0 a6bc
00000260: da23 e7bb 08e1 033e 6ac4 fcbc 235b 033d
00000270: 1dd5 8d3d 3d90 ee3d ccf8 353e 922b 603e
00000280: 6c17 143e 3bd1 2d3c 4e0f 8a3c fb15 c03c
00000290: 0b94 c73d 9cfb 983b a26e 003e 0bca f7bd
000002a0: 1b69 fbbd 49b6 68bd 16c7 1fbe 4020 29bc
000002b0: 7215 f7bd f3a6 883d 81e4 893c 6173 7a3d
000002c0: d439 42bd 8421 18be 661f f73d de62 013c
000002d0: cac1 203d fa52 ef3c 7bea 1b3e 8211 753c
000002e0: 1f9a 12be e43d d6b9 d7e1 22bd eeff 0cbe
000002f0: 6d46 d73d caa8 333c d1cd 913c c971 4b3e
00000300: 4b8b efbb 1265 083e 65bb 4fbe b2fc ab3c
00000310: bef8 b0bd 2fc4 f1bd 8dfe 9ebd 8b42 06bd
00000320: b07f 87bd 7142 b7bd e087 2a3d 84a5 133d
00000330: 0d48 bfbc 86c4 7d3e 42bc d23b 7c04 1b3d
00000340: a428 cc3c 5936 4b3d 3e4f 743d e881 0a3e
00000350: 1f14 763d 5ead 9f3c 78e0 c23d ff24 0f3d
00000360: 8386 9e3c a048 bcbd 3616 55bc b3a7 aa3d
00000370: 8546 5ebd 78c8 933e 98cc d73c 8be9 38bd
00000380: f6ea a8bd 1413 df3d ab43 74bb a6e3 1b3d
00000390: 60ee 103e 79a0 da3a 154c 213d ef7e ed3d
000003a0: e029 ac3c 59f3 92bd b9af d0bb a0d9 a8bd
000003b0: 7fa6 b3bd 9db7 bd3c c5d5 f2bc 6261 733e
000003c0: f8c7 903d 589a fcbd f417 f13d 58c2 033e
000003d0: b966 18be 0c8a efba 0a70 c33d 1706 06bc
000003e0: 7032 663e 119b 353e ac53 29be 6828 b63d
000003f0: ca35 12be fc55 343e accb 45ba a92e 123e
0.09544944 0.17462888 0.015198566 -0.08808885 0.08889111 -0.0071040294 0.05977756 -0.09685928
0.12687533 0.067567386 0.0382757 0.01442611 0.16524991 -0.059552513 0.08057131 -0.05393594
0.1382633 -0.044138934 -0.11312341 0.04942514 0.082187355 0.13816781 -0.068406686 0.047605094
0.020526793 -0.17664424 0.110343985 0.07584614 0.031981613 -0.05224443 0.016773842 0.055286862
-0.10233711 0.1399611 0.18749449 -0.20920447 -0.10334422 0.033134557 0.19101755 -0.014127878
0.1854616 0.10210639 0.14729092 0.018720657 0.18525448 0.105534084 0.1155815 0.06513916
-0.036982942 -0.015024478 0.124502055 0.11454318 0.05348582 0.052246008 -0.090910986 0.054260645
0.14812751 -0.027435312 0.002441805 -0.13562636 0.018480176 -0.07365781 -0.056304913 -0.06813441
0.08020644 -0.05410636 -0.001632256 -0.0022529184 0.042856894 0.13574389 0.14058128 0.05689889
-0.04868726 0.04336383 0.06991017 -0.043372687 0.109875776 -0.009165302 0.04682719 0.115932025
-0.038001657 -0.014057026 -0.1166359 0.05554905 0.08090351 -0.031090518 0.06908134 0.17495763
-0.11309471 -0.14659902 0.08963409 -0.030762771 -0.09335207 0.0063441037 -0.051757757 -0.13987982
0.089962214 -0.097101904 0.07439135 0.12817752 -0.10521535 -0.1559657 0.07258807 -0.02744524
0.06632002 0.095247336 0.029019943 0.022493433 -0.0055153244 0.06865368 -0.053239085 0.013756191
0.121865295 -0.0942161 0.05934572 -0.053106476 0.09113099 0.1089788 0.059684422 -0.23749433
0.1784096 0.07678011 -0.037234902 0.004428882 -0.072054714 -0.019784655 -0.058605887 0.14027591
-0.032669593 -0.033371106 0.12599893 0.110933445 -0.014604112 -0.012816299 0.14119363 0.08208975
0.09132541 0.08067529 0.02736855 0.11694477 -0.08689951 0.037098214 -0.017557021 -0.0918894
-0.1390558 -0.09110026 -0.076714024 -0.055308517 -0.021994028 0.056950137 0.067442246 -0.020355577
-0.0070538344 0.12878811 -0.030855376 0.032069337 0.06925414 0.11648605 0.1777069 0.21891621
0.1446206 0.010608966 0.016853001 0.023447981 0.09745034 0.004668666 0.12542203 -0.120990835
-0.12275907 -0.056814466 -0.15603289 -0.01032263 -0.12064637 0.06672468 0.016832592 0.06114519
-0.04741843 -0.14856535 0.12066536 0.007897107 0.03924731 0.029214371 0.15226166 0.0149577875
-0.14316605 -0.00040863373 -0.03976616 -0.13769504 0.105114795 0.010965535 0.017798336 0.19867624
-0.007310306 0.13319805 -0.20286329 0.020994518 -0.08641194 -0.11804997 -0.077633955 -0.032778304
-0.06616151 -0.089482196 0.041633487 0.03604652 -0.023349786 0.24781999 0.0064311335 0.037846074
0.024921723 0.049612377 0.059645884 0.13526118 0.060077783 0.019491848 0.0951547 0.03494739
0.01935125 -0.091935396 -0.013005784 0.08332767 -0.05426647 0.28863883 0.026342675 -0.0451446
-0.0824794 0.10892311 -0.0037271779 0.0380589 0.14153433 0.0016679905 0.039379198 0.11596476
0.021016061 -0.07175321 -0.006368604 -0.08244634 -0.08771991 0.023158843 -0.029642949 0.23767617
0.07069391 -0.12334126 0.11772147 0.12867105 -0.14882936 -0.0018275394 0.09542854 -0.008180163
0.22480178 0.17734934 -0.16535825 0.08894426 -0.14278331 0.17610925 -0.0007545303 0.14275612

fc.weight f4 [11, 64]
00000000: ed39 0cbf 1b52 18be 4498 0bbd efa9 dcbe
00000010: 1894 e9be 2c7d 16bf 8f7a 00bf a89c ccbd
00000020: 80f7 2cbf 7c7e 5fbe d4d0 f4bd 1f93 733e
00000030: 56d0 1b3f 54bf 023e 9948 433f 7507 163f
00000040: 9b85 773f abf6 1a3f 59ba 00bf ff76 0a3e
00000050: 54d2 fd3d c635 223e 760f 453d 2a39 aabd
00000060: c958 79bf b2ea 99be e506 fabd 03f5 a23f
00000070: b444 663f 128a a03e 5a63 8b3e 9be3 153f
00000080: 983c 31be 1cc9 2ebf 05ef 513f bdf4 93be
00000090: e00f f4be 9e88 b53e 3ae3 eb3e 1a3f ab3e
000000a0: 6372 1ebe e40a 06bf 5b89 463f 54ff 55bf
000000b0: ad55 62bf 21c6 253f 2dd6 763f 6619 013d
000000c0: c4b0 603f f3e3 8bbe 25fd 533e c11c 853e
000000d0: 61ff eabe d03c 76be cf9b 02bf 75c4 48bf
000000e0: 3989 803e ebc8 173f efd0 223f 6505 1fbf
000000f0: b303 e83e 082c 17bf 4274 fd3e 45e1 e03d
00000100: 8682 3dbf 4d3c 39be cf68 b0be 1dae cdbd
00000110: a7b3 443f 8b1a c53e d7e7 cdbe 517b 9ebe
00000120: b2a8 13bf 32f7 ad3e c648 40be 6656 773d
00000130: 1750 c43e 21f5 50bc d1f8 b63e eb96 debe
00000140: 92a6 e33e 42e8 463f 8b9c b0bd 03a1 633d
00000150: be0a cb3d f19a 8a3e bbae 04bf 5826 043d
00000160: 4545 fc3e 9332 213f c895 143e 178a 93be
00000170: 77d0 ddbe 2924 f43e 6eb8 ebbe 04af 24bf
00000180: a4c9 fbbe a09a d0be bf0c e6bd c7af 8abe
00000190: 4816 8ebe b617 5b3e 0e87 97bd 959b 01bf
000001a0: a757 bfbe 42a7 dbbe a92b 21be 3599 8d3e
000001b0: 8510 5abf 27ca 82be df50 483f 2376 3b3e
000001c0: 08b1 6a3e 060b 23bf c8c1 17bf d774 673e
000001d0: 3e4d 79be 85d8 1ebf 50ea 42be 7410 afbe
000001e0: 5ba9 b8be 5796 04bf bfef 3cbf 77b3 033f
000001f0: 3229 9b3e 2009 02bf 50e3 fcbe 34be 913e
00000200: 0800 6c3e ed85 1e3e 19f7 12bf 18dc 213d
00000210: 492d f73e 3ea2 d83e afaa a53e 178a 4d3f
00000220: d0b9 c53e 95d1 a4bd 4feb 18be 476f 90bf
00000230: 0117 cfbe 2418 d33e 768c 093f e2b6 a1be
00000240: 2023 c7be b86b 273f b359 b73e b7a5 aabe
00000250: 37b9 a4be 3aa6 7cbf e3c1 2e3f e7e8 aebd
00000260: 53a2 1ebe 07a6 a7be 56e2 5bbf df89 b4be
00000270: 8e9f db3e 99ed 08bf b618 593e 1629 5d3e
00000280: 10f3 0ebf 84e2 053e 6fea 983d c787 d23e
00000290: 3683 d43e d50a c2be 14e7 e3be a5ac cebd
000002a0: 4911 613f b6bb 103e abd9 303f 2aa7 873c
000002b0: 782a 6b3d dceb b1be 04fd aebe ec27 4d3f
000002c0: b076 b8be 6556 a7bc 38d4 113d 7257 863e
000002d0: ac0a 243f 2a89 233e cd05 843f 5d65 323e
000002e0: 061b 09bf 13c7 3b3f 9eae 42bf 6050 2c3f
000002f0: 0321 aabf 3d3d 943e 3b69 743e 1078 d6be
00000300: 8b63 6fbf 7455 4abe f8f4 913e 2ea4 36bd
00000310: 8e0b 2abe 7ae6 18be 1427 9fbf 9b38 693c
00000320: 198e b93e a563 34be 8dba 53be 875f 8f3e
00000330: 7a24 2ebf 80f5 abbe b7c5 e8be 62ce ac3e
00000340: b6a0 61be a619 b93e 5f74 e6be a707 1cbe
00000350: b85c 883f bf1e 1d3f cf63 313f 13e9 8b3d
00000360: 7ca1 f73d 119c 0fbe bd84 bc3d 1031 83be
00000370: 47d0 a53e 79d5 c3be ea5d 293f a717 f73d
00000380: 4c4b f6be 7f10 823e 3e05 0f3f ee5d 0f3f
00000390: e5df c33e 1a28 64be 6804 00be 444f a33e
000003a0: dbd6 2cbf 2471 273f 6eab dc3e cd93 f73e
000003b0: cd5f 6e3e 443d 663d 429b 843f 3f50 1bbf
000003c0: 1a5c 71be 0ff1 3cbf 54a2 093e 2571 b93d
000003d0: cd53 123f 2d59 343e 2c14 a6be 1ceb 973e
000003e0: 61a1 82be f88f 6ebf c89e 42be 3590 19bf
000003f0: 595e fc3e 2e6f a63e 6fdd 6cbd 79bd 013f
-0.5477589 -0.14875071 -0.03408076 -0.430984 -0.456208 -0.5878475 -0.5018701 -0.09990817
-0.67565155 -0.21825594 -0.11953893 0.23786591 0.6086477 0.12768298 0.7628265 0.5860513
0.9668824 0.60532635 -0.50284344 0.13521956 0.123936325 0.15840825 0.048110448 -0.083116844
-0.974011 -0.3006187 -0.12208346 1.2731022 0.8994858 0.3135534 0.27224237 0.58550423
-0.17308271 -0.6827562 0.8200534 -0.28897658 -0.47668362 0.35455793 0.46071798 0.3344658
-0.15473323 -0.5236037 0.7755334 -0.83592725 -0.8841198 0.64755446 0.96420556 0.031518362
0.8776972 -0.2732235 0.20702036 0.259985 -0.45897964 -0.24046636 -0.51018995 -0.7842477
0.25104693 0.5929095 0.6360006 -0.62117606 0.45315322 -0.5905156 0.4950276 0.10980467
-0.7402729 -0.18089409 -0.34454963 -0.10042975 0.7683663 0.38496813 -0.40215942 -0.30953458
-0.57679284 0.33977658 -0.18777761 0.06038513 0.38342354 -0.012753756 0.35736707 -0.43474516
0.4446302 0.7769815 -0.08623608 0.055573475 0.09914158 0.27071336 -0.5182912 0.03226313
0.49271598 0.62967795 0.14510262 -0.28816292 -0.4332311 0.47683838 -0.46039146 -0.6432955
-0.49177277 -0.4074297 -0.112329 -0.27087232 -0.27751374 0.21395764 -0.073988065 -0.50628024
-0.3737156 -0.42901045 -0.15739311 0.2765595 -0.85181457 -0.25544855 0.782484 0.18306784
0.22919095 -0.63688695 -0.5928006 0.22603165 -0.24345872 -0.6204913 -0.19034696 -0.3419224
-0.36066708 -0.517919 -0.73803324 0.51445717 0.30304867 -0.50795174 -0.49392176 0.28465426
0.23046887 0.15480776 -0.5740829 0.03951654 0.48276737 0.4231128 0.32356784 0.80288833
0.38618326 -0.08047787 -0.14933513 -1.1283959 -0.40447238 0.41229355 0.5372995 -0.3158484
-0.38893986 0.6539874 0.35810623 -0.33329555 -0.32172558 -0.9869114 0.682646 -0.08540516
-0.1549161 -0.32743856 -0.85892236 -0.35261437 0.42895168 -0.53487545 0.21200833 0.21597704
-0.55839634 0.1307469 0.0746659 0.41119215 0.41506356 -0.3789889 -0.44512236 -0.10091523
0.87917 0.14134106 0.69082135 0.016559202 0.05741355 -0.3475026 -0.3417741 0.8013904
-0.3602805 -0.020426938 0.03560278 0.2623859 0.64078784 0.15970293 1.031427 0.1742148
-0.5355686 0.7335064 -0.76047695 0.6731014 -1.3291324 0.2895297 0.23868267 -0.41888475
-0.93511266 -0.1975916 0.2850721 -0.044590168 -0.1660597 -0.1493167 -1.2433801 0.014234687
0.36241224 -0.17616136 -0.20676632 0.2800257 -0.6802441 -0.3358574 -0.45463344 0.33751208
-0.22033963 0.3615238 -0.4501066 -0.15237294 1.0653296 0.6137504 0.6929292 0.06831565
0.120913476 -0.14024378 0.09205005 -0.2562337 0.32385466 -0.38248804 0.66158926 0.12065058
-0.48104322 0.2540321 0.55867374 0.560027 0.38256755 -0.22280923 -0.12501681 0.31896412
-0.67515343 0.65407014 0.4309954 0.4835495 0.23278733 0.05621077 1.0359881 -0.6066932
-0.2357029 -0.73805326 0.1344083 0.09054784 0.5715912 0.17612143 -0.32437265 0.29671562
-0.25513747 -0.9318843 -0.19005883 -0.5998567 0.49290732 0.32506698 -0.057828363 0.5067974

fc.bias f4 [11]
00000000: b2c2 af3d a16b 8bba ee83 0b3c c645 b03d
00000010: efcd 0dbe 1d58 debc 6888 b93d 0151 1bbe
00000020: 0405 c4bd 85fe 8c3d 7310 5abe
0.08582057 -0.0010636934 0.008515341 0.08607058 -0.13848089 -0.027141625 0.090592206 -0.1516762
-0.09571269 0.06884483 -0.21295337
